model_params_from_cv2/CNN/subject3_cv2_CNNmodel_parameters.pth (torch, 751916 bytes, 8 tensors)

conv1.weight f4 [32, 1, 3]
000000 52 69 8c be 12 6a c8 3e 40 2e 9e 3e 33 64 53 be
       -0.27424103 0.39143425 0.3089466 -0.20643692
000010 00 fe b4 3c db 6b 39 be 79 14 5c 3e 6f 98 94 3e
       0.022093773 -0.1810755 0.21492185 0.29022548
000020 ca 01 c8 be d3 9d 82 3e e3 bc 0b 3f 93 cb 35 be
       -0.39063865 0.25511035 0.54585093 -0.17753439
000030 96 97 dc 3d 12 9f e6 3e 96 34 be 3e b6 70 05 be
       0.107711 0.45043236 0.37149495 -0.13031277
000040 76 4a 90 bd ac 8a 5e be ea a5 96 3e e2 bf 56 3e
       -0.07045452 -0.21732587 0.29423457 0.20971635
000050 be 95 0c 3e 73 06 eb 3e 2f 8b d0 bd 60 ff 53 3e
       0.13728997 0.45903358 -0.10182797 0.20702887
000060 3f 10 6d 3e 06 74 90 3e 8c dc 00 3f 8a 00 fb be
       0.23150729 0.2821352 0.5033653 -0.4902385
000070 f6 44 68 be 70 bf 06 3f 57 05 b8 3e b3 88 82 3e
       -0.22682557 0.5263586 0.35941574 0.25494918
000080 b0 2d ec be 53 2c c8 3e a2 e6 e1 3e 5e e5 41 3e
       -0.46128607 0.39096317 0.4412127 0.18935153
000090 19 29 cc be 1a 98 a3 be 50 95 4e be da d9 14 bd
       -0.39875105 -0.31951982 -0.20174146 -0.036340572
0000a0 d1 95 8f be f0 10 cb 3e 76 4f cd 3e aa 2e 56 be
       -0.28043988 0.3966136 0.40099686 -0.20916238
0000b0 b7 c9 ff be 00 58 9f b8 7a c6 94 bd 10 4e 36 be
       -0.49958584 -7.598102e-05 -0.07264419 -0.17803216
0000c0 f9 1e e1 be cb 71 07 be 49 36 25 3e 63 d1 35 3e
       -0.43968943 -0.13227002 0.1613399 0.17755656
0000d0 2d 14 54 be 84 b8 ca 3e a2 31 8b 3e ec 79 e6 3e
       -0.20710821 0.395939 0.27186304 0.45014894
0000e0 f0 60 35 be 18 06 d9 be c8 ed 05 be 29 a1 7c 3e
       -0.1771276 -0.42387462 -0.13078988 0.24670853
0000f0 b9 bf 7b 3d 1e 99 e4 3e 13 86 1c 3e b0 cd 18 3c
       0.061462138 0.4464807 0.1528552 0.0093263835
000100 f0 dc 05 be 63 a1 52 be 17 1d 0f be 10 51 bc bd
       -0.13072562 -0.20569377 -0.1397594 -0.09195149
000110 29 be 46 be 42 86 9b 3e a4 ef 20 be a6 7d b4 be
       -0.19408478 0.30375868 -0.15716416 -0.35252112
000120 0c 66 eb 3e c5 c2 14 be 07 3f 75 3d cf 81 f3 3e
       0.45976293 -0.14527424 0.05987456 0.47559974
000130 12 1e 10 3e ba 56 c0 3e 41 5b 03 be 54 e9 6c 3e
       0.14073971 0.37566167 -0.1282778 0.23135883
000140 48 b3 09 3f 79 be 0b 3e 7d aa b0 3d 58 87 d8 3e
       0.53789186 0.13646878 0.08626268 0.4229076
000150 bb 15 a1 be 12 48 f3 3e cb 62 af 3e 31 31 70 3e
       -0.31461892 0.47515923 0.3425506 0.23456265
000160 c4 50 3c be 67 84 46 3e 0b 35 20 3e a4 ed a4 3e
       -0.18390185 0.19386445 0.15645234 0.32212555
000170 ef 95 f7 3e 07 6e ba be 9c a2 9b bd 9d 75 82 3e
       0.48356578 -0.3641207 -0.07599375 0.25480357

conv1.bias f4 [32]
000000 f0 9d 1b 3b 2e 68 7b ba 87 21 06 3c c2 30 d1 3b
       0.002374526 -0.0009590414 0.0081867045 0.006383986
000010 0b 06 99 3a 00 00 00 00 38 34 44 ba e9 56 f2 3c
       0.0011674775 0.0 -0.0007484588 0.029582458
000020 92 06 01 ba 69 35 00 3d dc 67 b6 3c 3c ef 80 ba
       -0.00049219385 0.031300936 0.02226632 -0.0009836922
000030 04 14 e8 3c eb b2 32 3b 91 fd ed 3c 00 00 00 00
       0.028329857 0.0027267288 0.029051574 0.0
000040 30 43 06 3d f0 7b 27 3b f6 0f d0 37 8b 73 1f 3d
       0.03277892 0.002555605 2.4802965e-05 0.03892855
000050 f7 96 f7 b9 e5 c0 1d b9 00 00 00 00 e3 86 d2 3c
       -0.0004722399 -0.00015044546 0.0 0.025699085
000060 5b c2 02 ba 6d c4 ac ba 78 54 0c 3c 6b ec 32 ba
       -0.00049880677 -0.0013181098 0.008565061 -0.000682539
000070 a3 48 e2 3b b5 5d 26 3c 9e b4 81 ba c5 87 d1 3c
       0.0069056316 0.010154177 -0.0009895747 0.025577435

conv2.weight f4 [64, 32, 3]
000000 4a 37 22 3d 26 59 98 bd 80 e2 45 3d 0e 9f b4 3d
       0.03960351 -0.07438879 0.04831171 0.088194
000010 e8 80 00 3d 01 6e 9d 3b fc 75 9e bd 68 52 43 bd
       0.031372935 0.0048043733 -0.077373475 -0.04768601
000020 a8 93 b7 bc b3 0d dc bd 1c 9a 56 3e 5a dd a0 3d
       -0.022409275 -0.107448004 0.20957226 0.078547195
000030 0d 0d c0 3d 4a d1 34 3e dd f1 19 3e d3 93 d1 bd
       0.09377489 0.17657962 0.1503367 -0.10233273
000040 60 3f 24 bd e0 4b 2c 3c d4 95 01 3e 4e af 64 3b
       -0.0400995 0.010516137 0.12654811 0.0034894529
000050 27 8a 41 3e 87 39 e7 bc 66 93 4a 3e b5 e6 87 3d
       0.18900357 -0.028225673 0.1978279 0.06635801
000060 73 ef 48 3d 8b 72 57 3d 77 f0 37 3e 3d e2 1c 3e
       0.04905648 0.05259947 0.17962824 0.15320678
000070 75 10 e3 bd 34 c8 15 3d 0c 50 b5 bd 5f a2 c8 3d
       -0.11087123 0.03656788 -0.08853158 0.09796595
000080 84 a9 0f be b2 33 2c bd 69 c2 3b 3e 70 e8 e1 3d
       -0.14029509 -0.042041488 0.1833588 0.11030662
000090 a6 87 bb bd 43 07 09 3d 4a 04 f5 3d 19 61 36 3e
       -0.09156732 0.03345419 0.11963709 0.17810477
0000a0 2d 58 ad bd 1f 2f d9 3d 83 13 65 be 52 b1 ad bd
       -0.08464084 0.10604691 -0.22370724 -0.08481087
0000b0 00 e8 94 bc ca 1d b5 3d 96 60 83 3d e5 c7 87 bd
       -0.018177032 0.088435724 0.06414907 -0.06629924
0000c0 31 9f 63 3d 31 36 ba bc ab 1f df 3d 9d cc 5f 3c
       0.05557174 -0.022730919 0.10894712 0.013659623
0000d0 ad b2 05 bc 0b 6c 08 3e 7a 8b 9d bb a0 4c 49 3e
       -0.008160275 0.13322465 -0.0048078867 0.19658136
0000e0 f3 b8 b0 3d 2d 05 f1 bb c7 f0 4f be a6 8a 3b 3d
       0.08629026 -0.0073553533 -0.20306693 0.045786522
0000f0 43 80 0b bc 31 af 63 3c 2a 41 70 3d 4c 7e 01 3e
       -0.008514467 0.013896749 0.058655895 0.12645835
000100 88 5e cd 3c b0 61 e2 bd 60 48 bc bd 80 45 ab 3a
       0.02506949 -0.11053789 -0.09193492 0.0013066977
000110 3c 96 75 bd 42 a4 67 be 2b 0e 96 bd 26 af 3d bc
       -0.059957728 -0.22621253 -0.07326921 -0.011577403
000120 51 5f ae bd b6 47 68 3e 93 a7 50 bd c7 68 b1 3d
       -0.08514274 0.22683606 -0.05094106 0.08662563
000130 8b 6e d3 3c 17 51 00 bd 27 4b 28 3e 34 37 74 bd
       0.025809547 -0.031327333 0.16434918 -0.05962296
000140 1c fc d7 bd 88 11 c2 3d 75 8f 8d 3d 92 4c 46 3b
       -0.10546133 0.09476 0.06912128 0.0030258042
000150 34 d8 16 bd af 5c 28 3e 3b 8f 88 3d 57 bd 3a 3e
       -0.03682728 0.16441606 0.06667944 0.1823629
000160 de 03 8a 3d cb 1d e1 3d f4 8e b8 3d cd c0 03 3e
       0.06739019 0.10992011 0.09011641 0.12866516
000170 9a 35 44 3e fa f8 53 bc f6 a8 cf bd 08 e3 1e 3e
       0.19161072 -0.012937779 -0.101396486 0.15516293
000180 d1 f1 48 3e 8f a7 2c be d1 52 36 be aa 45 83 bd
       0.19623496 -0.16860794 -0.1780503 -0.06409772
000190 95 10 ac 3d 0d be 03 be 9c 36 1c 3e c0 16 03 3e
       0.084016 -0.12865467 0.15255207 0.12801647
0001a0 e9 95 17 3e b1 c5 8d 3d 12 b0 5c 3e 64 19 0a be
       0.1480328 0.06922472 0.2155154 -0.13486248
0001b0 1f 2b 92 3d 8a 37 91 3d 1f 33 b3 bd 3f de 09 be
       0.07137131 0.07090671 -0.08749985 -0.13463686
0001c0 b2 c7 aa bd 60 76 87 3d 77 1f b1 3b 32 70 43 3e
       -0.0833887 0.06614375 0.005405362 0.19085768
0001d0 99 15 93 bd da cd 94 3d 6c 0f 28 bd 1b 7e f2 bd
       -0.07181854 0.072658256 -0.041030332 -0.11840459
0001e0 f4 23 24 3e eb 40 ef 3d d2 91 e8 bd 49 f3 c8 3c
       0.1602934 0.11682304 -0.11355938 0.02453007
0001f0 18 1b 1b 3d 33 a1 02 be 5a d9 4b 3d 92 bc 5e 3d
       0.037867635 -0.12756805 0.04976783 0.054379053
000200 28 9b e7 3c 5a b4 4e 3e 6c aa 10 3e fc 32 3e be
       0.028272226 0.20185986 0.14127511 -0.18574136
000210 4a fb 44 be 96 d7 a8 bd 20 1c 91 bd b0 ae 19 3e
       -0.19236484 -0.08244245 -0.070854425 0.15008044
000220 58 a3 dd 3d 26 89 d0 bc 85 db 2c be 94 c5 85 bd
       0.10822171 -0.025456022 -0.16880615 -0.06531826
000230 15 10 a6 3d 48 04 57 3d cc 42 22 bd dc b2 bd bd
       0.08108536 0.052494317 -0.039614484 -0.0926263
000240 83 a7 3b bd 44 33 9e 3d fa cb 0b bd 29 ef 9b bc
       -0.04581405 0.07724622 -0.034130074 -0.019034939
000250 b8 18 31 3e 73 a9 20 ba 60 39 ff 3d 17 e7 02 3e
       0.17294586 -0.00061287655 0.12462115 0.12783466
000260 d6 07 21 be 91 68 89 3d c2 27 94 3d b0 2f 67 3c
       -0.15725645 0.067093976 0.07234146 0.014110491
000270 4c 04 40 3e de cf c6 bb 0c f4 f0 3c ba 8a 04 be
       0.18751639 -0.00606726 0.029413246 -0.12943545
000280 79 bb af 3c a4 ba 0b be fc 89 5c bd 20 95 4f 3c
       0.021451699 -0.13645416 -0.05384253 0.0126698315
000290 08 c9 f8 3c 87 b0 ef 3c e5 de 85 3d a2 e7 c8 bd
       0.030369297 0.02925898 0.065366544 -0.098098055
0002a0 49 1f cb bd 4c 9f 15 3e 96 55 27 be 59 2f 48 bd
       -0.099180765 0.14611548 -0.16341242 -0.04887328
0002b0 c7 1f e8 3c c7 f1 27 be 15 bb 3c bd 74 aa 42 bd
       0.028335465 -0.16400824 -0.046076853 -0.047525838
0002c0 be df 02 be 3a ef 65 3d bc a4 41 3e e6 7d cc bc
       -0.12780663 0.056136347 0.18910497 -0.024962377
0002d0 53 eb 8a 3d 1e 98 1c bd a5 1f 1a be d5 aa be bd
       0.06783166 -0.038231008 -0.15051134 -0.093099274
0002e0 7b 30 21 bd dc 73 d5 bc 6b e7 02 bd 92 46 e3 3d
       -0.039352875 -0.026056223 -0.03195898 0.110974446
0002f0 fe b7 83 be b0 09 75 3d 7f a5 ea bb 1a e3 7c bd
       -0.25726312 0.05982369 -0.007160842 -0.06174002
000300 8e 7d 45 3d 03 fc 47 be ac 16 c8 bc d8 69 9c 3c
       0.04821544 -0.19529729 -0.024424873 0.019093439
000310 26 96 91 3d 75 65 4a bd 7b 65 2b be 8b e4 e6 bd
       0.07108717 -0.049413163 -0.1673793 -0.1127406
000320 07 cd 9c 3c c7 07 1e be 71 14 72 3d 39 f8 cb bb
       0.019140733 -0.15432654 0.059101526 -0.006224659
000330 ac 72 67 be ee 12 1e be 28 9c 6a 3d a2 2e 90 bd
       -0.22602338 -0.15436909 0.05727783 -0.070401445
000340 14 35 75 bd 08 b2 c8 3d b7 0f d0 3c c4 cf ef bd
       -0.059865072 0.09799582 0.025398118 -0.1170955
000350 d5 dc 9a bd 53 42 a2 bd 4f ea 9a 3d d3 e9 16 bd
       -0.075616516 -0.079228066 0.07564222 -0.036844086
000360 cf 83 2d be 18 eb 29 be 51 a8 20 be c0 3a 68 3e
       -0.16944812 -0.16593587 -0.15689208 0.22678661
000370 f7 b5 08 be a6 9d 84 3d 62 4a 5f 3d fc 32 51 3d
       -0.13350664 0.064753816 0.054514296 0.051074013
000380 3c 1a 27 3e 01 af 09 be 17 4f b6 bd 44 fb ed bb
       0.16318601 -0.13445665 -0.08901804 -0.007262619
000390 59 2e af 3c 4f 00 38 3e 08 83 68 bd 21 ec 10 3e
       0.021384405 0.17968868 -0.056765586 0.14152576
0003a0 ba ca ce bd 12 27 6c 3e 36 fe c2 bd 2c f6 a4 3d
       -0.10097261 0.23061779 -0.09521143 0.08054766
0003b0 14 38 8b 3d 7c ca f7 bd 24 f9 f9 bc 91 0c 10 be
       0.067978054 -0.12099168 -0.030514307 -0.14067294
0003c0 a1 bf 3a 3e e0 9c 22 3d ad f9 a4 3d da 0c 8a bd
       0.18237163 0.03970039 0.080554344 -0.067407325
0003d0 f4 55 a4 bd 69 c3 23 3e 11 7d 2e bd 58 c7 5f be
       -0.08024207 0.15992512 -0.04259974 -0.21853387
0003e0 dd 2f 17 3e 51 01 68 3e e0 07 34 3e 6a 72 41 bd
       0.14764352 0.22656752 0.17581129 -0.047228254
0003f0 8c 6a 29 be b2 0f b1 bd 28 63 0d 3e e6 ee 00 be
       -0.1654455 -0.08645572 0.13807356 -0.12591133

conv2.bias f4 [64]
000000 91 c2 bb bb 54 99 34 3c 10 9c 04 3d b5 9f de ba
       -0.005729981 0.011022884 0.032375395 -0.0016984852
000010 86 11 49 3c f9 ae d8 3b 9d 32 57 3b ad c8 05 bc
       0.012272244 0.0066126552 0.0032836564 -0.008165521
000020 cd 2e 9f 3c 44 ce 03 3d fd 92 a7 3c 54 8c 19 bc
       0.019431496 0.032179132 0.020455832 -0.009371836
000030 c9 85 1a 3b 58 20 49 3c 79 d3 58 bb 79 ba b5 3c
       0.0023578277 0.012275778 -0.0033085032 0.022183644
000040 2a 54 af bb 14 77 e0 3a aa a1 11 3c b0 99 0d 3d
       -0.0053506093 0.0017125332 0.008888641 0.034570396
000050 d9 1b 35 3c 1e ba 41 3c 88 c6 14 3c c0 59 59 b8
       0.011054003 0.011824159 0.009080537 -5.1820418e-05
000060 a2 a1 30 3b a9 5b 7f 3c db e7 d8 3c 80 31 50 3c
       0.002695181 0.015585818 0.026477745 0.012707114
000070 76 35 65 3c 0d d0 77 bb 68 1c e1 3c 94 17 48 3c
       0.013989797 -0.0037813217 0.027479365 0.012212653
000080 40 30 d5 ba cf f7 e5 3c dd 4e 10 3d eb 6b 08 bc
       -0.001626499 0.028072266 0.03523146 -0.008326511
000090 df b2 d3 3b fb 51 eb bb 18 ef 2e 3c 4d 56 bb 3c
       0.006460532 -0.0071814037 0.010677122 0.0228683
0000a0 51 e2 89 bb 25 ac 93 3a de 74 0d 3d 1c d2 20 3c
       -0.004207887 0.0011266513 0.03453528 0.009815719
0000b0 c7 0a 32 3c 79 64 b7 3a d2 4f 9e 3c e3 45 3a bb
       0.010866827 0.0013991735 0.01932517 -0.0028423003
0000c0 c4 90 53 ba 47 1c aa 3b 57 fc 7a 3c bc 8c 86 3b
       -0.0008070583 0.005191359 0.015318952 0.0041061323
0000d0 02 a6 bd 3c 57 d2 00 3c cd 0b 99 3b f9 80 0f bc
       0.023150448 0.007862649 0.004670596 -0.008758777
0000e0 e0 47 4a bb d2 f0 c4 3c 3e e8 84 ba 6a 78 0d b9
       -0.0030865595 0.024040613 -0.0010140014 -0.00013491666
0000f0 22 49 38 3c ba 92 45 3c 62 c2 82 3c 20 62 16 b9
       0.011247905 0.012058908 0.01596183 -0.00014341669

fc1.weight f4 [128, 1408]
000000 fc dd d9 3d e8 94 49 3d 2d a0 13 bd cc 9e 10 3d
       0.10638043 0.049214274 -0.036041427 0.03530769
000010 ed 5f a5 3d 61 30 21 3d 78 b6 3c 3d 16 72 ca bc
       0.08074937 0.03935278 0.046072453 -0.024712604
000020 3f 3d 2d bd e3 47 c2 3d f7 65 ce 3d c9 fd 40 bc
       -0.042294737 0.094863676 0.10078042 -0.011779257
000030 5d e1 ef 3d ce d9 57 bd 92 62 d9 3c a1 6b 02 bd
       0.117129065 -0.05269795 0.02653626 -0.031840924
000040 88 eb 7f 3c 54 78 5b 3b 0e 9b d3 3c 20 75 6d 3d
       0.01562012 0.003348847 0.025830772 0.057973027
000050 3c 33 e1 ba 38 8b 3e bb 04 53 a5 3d 2d 01 38 bd
       -0.0017181407 -0.002907468 0.080724746 -0.044922996
000060 10 51 55 b7 29 51 18 bd 47 39 e4 3c 4c d0 d3 3d
       -1.2714663e-05 -0.037186775 0.027859343 0.10342464
000070 ae d9 94 bd 62 4b e9 3b 56 7b 89 bc 51 8d d0 3c
       -0.072680816 0.007119582 -0.016782444 0.02545801
000080 fe 49 e6 bc b7 cf 20 bd 96 1b b0 3d 15 6c a4 3d
       -0.028111454 -0.039260592 0.085990116 0.080284275
000090 39 5d f3 bc 7e b5 e8 3d 95 f5 47 3d c4 3b e9 3d
       -0.029707538 0.11362742 0.04881819 0.113883525
0000a0 53 b9 d1 bc 7b 8e 63 3c 90 dd d3 3c 00 cb 05 3e
       -0.025601065 0.01388895 0.025862485 0.1306572
0000b0 c3 3e b1 bc 23 fa 0c bd c5 52 27 bd 6d e1 32 3d
       -0.021636372 -0.034418236 -0.04085042 0.043672014
0000c0 59 bb 9f bc d2 57 ae bc be ba d0 bc 36 33 46 bb
       -0.019498514 -0.02128211 -0.02547967 -0.0030242926
0000d0 b7 84 8c 3d e9 87 a5 bd bc b7 5d 3c 31 d9 86 bd
       0.06861251 -0.080825634 0.013532575 -0.06584395
0000e0 42 de 93 bc fb a4 11 bd ac 73 da bc 97 16 0e bd
       -0.018050317 -0.03555773 -0.026666485 -0.034689512
0000f0 e0 ff 0f 3c 90 49 de bc a0 a8 e3 bc 85 ef 57 3b
       0.008789033 -0.027134687 -0.027790368 0.0032949161
000100 ca 9c 9a bd 65 ba e9 3c 67 84 a7 3c bc 98 13 3d
       -0.075494364 0.028531263 0.020448877 0.03603433
000110 28 5d d9 ba 07 c7 d9 bb 9b 9d 19 3d b2 1a 94 bc
       -0.0016583549 -0.0066460404 0.03750382 -0.018079136
000120 37 30 28 3b a9 a5 e0 3c e7 5a ae bc d1 bc 83 3c
       0.0025663504 0.027422743 -0.02128358 0.016081246
000130 3e 8f 43 bd 61 1d 57 bd 37 f0 bb 3c 58 9e dd 3d
       -0.04774403 -0.052518252 0.022941692 0.10821217
000140 12 26 7f 3d cf 74 9b bb bc 31 e7 bc a4 c4 35 bd
       0.062292166 -0.0047441493 -0.028221957 -0.044376984
000150 52 2d c2 bc 03 77 9f bc 9b 14 8d 3c 34 46 10 bd
       -0.023703251 -0.019465929 0.01722174 -0.0352232
000160 2b a5 90 3d e9 f4 74 3c 8d 0c 19 3d e8 8d a4 bb
       0.07062753 0.014950969 0.037365485 -0.0050217994
000170 e1 24 8b bd 1b 42 43 bd a1 d0 19 bd cd 02 bc bc
       -0.067941435 -0.047670465 -0.03755248 -0.022950554
000180 c0 db 99 3d 45 83 54 3c 83 da b5 3c 9b 64 d4 bc
       0.07512617 0.01297075 0.022198921 -0.025926879
000190 52 b0 18 3c 1b b8 db 3b a5 55 0a bd 78 4e 90 3b
       0.009319382 0.0067052967 -0.033773083 0.0044038855
0001a0 bb 7e fb bc 3a 67 41 3d 92 3c 6e bd f5 9b 16 bd
       -0.030700078 0.047217585 -0.058163233 -0.036769826
0001b0 0b e9 90 bd da 9f 8c bd 10 8a 1a 3d bd 16 33 3d
       -0.070756994 -0.06866427 0.037729323 0.043722857
0001c0 f4 d5 9c 3d 58 8f c1 3b 87 a8 46 3d 68 c3 c0 3d
       0.07657996 0.0059069805 0.048500564 0.09412271
0001d0 d9 43 07 3d 84 e1 96 3d 3a f0 06 3d 2c 0c ab 3d
       0.03302369 0.073672324 0.03294394 0.08351931
0001e0 0e 9a 61 3e cd 50 94 bc ba eb 8c 3d 73 c2 bd bd
       0.22031423 -0.018104935 0.06880899 -0.09265604
0001f0 59 dd 13 3d 82 fd 10 3c 6a 8a fc 3d 0e fd 0a bd
       0.036099765 0.0088495035 0.12331088 -0.033932738
000200 64 ff 98 bd 87 74 01 3d 33 3c 6c 3d fe 7b 8d bb
       -0.07470587 0.03160527 0.057674598 -0.0043177595
000210 a5 e6 c7 3d e6 04 ba bb fe 82 60 3c c9 85 c0 bc
       0.09760789 -0.0056768535 0.013703106 -0.023501294
000220 3d 61 49 3d d7 60 81 bd a2 3d 25 3d 7d d6 eb bc
       0.049165 -0.06317299 0.04034198 -0.0287888
000230 19 3c f7 3c 39 78 05 3e ca 08 5b 3c 06 27 98 3b
       0.030180024 0.13034143 0.013368795 0.004643324
000240 e5 c2 82 bd bb 6e c0 3d 88 90 8e bc 7d 7f 4a bc
       -0.063848294 0.0939612 -0.017402902 -0.012359497
000250 73 79 9e 3d 8b 2f 03 bd 0a fe ff 3c 58 8f 8d 3d
       0.07738008 -0.032027762 0.031249065 0.06912106
000260 30 00 76 bd 7a f7 77 3c 8e 88 47 3c 1c 30 02 bd
       -0.060058773 0.015134687 0.012178553 -0.031784162
000270 99 77 05 3d 4d 98 63 3d 9e 3f 87 bb d8 90 87 3d
       0.03258476 0.055565167 -0.004127457 0.06619424
000280 9c a5 6a 3d 03 cb 94 bc e9 e3 7f 3c ee 27 d5 3c
       0.057286844 -0.01816321 0.015618303 0.026020017
000290 c9 42 a3 ba d7 41 05 bd 49 ff 30 3d db 57 22 3d
       -0.0012455817 -0.032533493 0.04321221 0.039634567
0002a0 30 ad 72 bd 84 9c de 3c 2f be 53 3d 83 03 eb 3c
       -0.059247196 0.027174242 0.051695045 0.028688198
0002b0 10 a5 4f 3c 02 2d d2 3c 65 ec ce 3c e0 fb 32 bd
       0.012673631 0.025656227 0.025259206 -0.043697238
0002c0 c5 ee 1a be 59 b0 6f 3d e7 86 30 3d 7d cf 55 bd
       -0.15130146 0.058517788 0.043097403 -0.05219983
0002d0 8a ff 15 bd 91 b3 fc 3c f0 1b c6 bd 2f 03 fd bb
       -0.036620654 0.030847343 -0.096732974 -0.007721327
0002e0 a7 5e b3 3c aa b3 79 bd 1c e3 06 bd d4 c9 b2 bc
       0.02189572 -0.060962357 -0.032931432 -0.021824755
0002f0 c0 99 a9 3c e2 ff 6e bd d8 ad 1e 3d 12 12 c2 bc
       0.020703197 -0.058349498 0.03874001 -0.023690257
000300 30 8f 51 3d 23 b3 2b 3d 55 8f f8 3c 3c 75 3e 3d
       0.051161945 0.041918885 0.030341784 0.046498522
000310 4c 7c 9a 3c 18 37 97 3c 0f 94 03 bd 15 ba e2 3b
       0.018858097 0.018458888 -0.03212362 0.0069191554
000320 ea 77 19 3d 13 4e 48 3c e3 b7 63 3b 8f 60 83 3d
       0.037467875 0.012225646 0.0034747056 0.064149015
000330 b0 15 07 3d 0c 35 b6 bc f0 ba b6 3d b0 c6 4c bc
       0.032979667 -0.022242092 0.08922374 -0.012498543
000340 57 73 01 bd cf b8 7f bc 9c 2b 3e bd 18 70 1f 3c
       -0.031604137 -0.015608027 -0.046428308 0.009731315
000350 ca 4e 62 bc 27 0e 42 bb 80 7e 2d 3d 66 43 a8 3b
       -0.01381273 -0.0029610486 0.042356968 0.0051349876
000360 eb 2d 50 3d 04 c1 56 bd 13 0b a9 3c cf 09 42 bd
       0.05082504 -0.052430168 0.020635163 -0.047372635
000370 b9 98 f7 bd f3 36 00 3c ba 1c e4 3c be 51 d2 3c
       -0.120896764 0.007825601 0.02784573 0.025673743
000380 24 8b 23 3d b4 d1 f3 3c 18 2e 61 3c 79 7e 9f 3c
       0.039927617 0.02976308 0.0137439 0.019469487
000390 b0 e9 e3 3a ad 9f 9d bd bb 0e f3 bb 3a 2a 55 bd
       0.001738837 -0.07696471 -0.0074175275 -0.052042224
0003a0 36 1f f1 bc 46 53 55 bd cf a3 39 bd 00 c1 77 3c
       -0.029433828 -0.05208137 -0.045322236 0.015121698
0003b0 f7 3a 42 bc 90 0d 55 bc 15 f2 2e bd 41 dd 80 bd
       -0.011854879 -0.013003722 -0.042711336 -0.06292201
0003c0 0e c1 66 bd 08 03 7d bd 80 24 1e 3d ca f2 ba 3c
       -0.056336455 -0.06177047 0.038609028 0.022820849
0003d0 ea 60 6b 3d fc d5 42 3d 6d e0 46 3d 4f cd cc 3b
       0.05746547 0.047567353 0.048553873 0.0062500606
0003e0 2f 31 e7 bc cf 67 dc 3b 5a fa 5b 3d 3b f0 1e 3d
       -0.028221695 0.006726242 0.05370555 0.03880332
0003f0 e5 a1 b9 3d 2b 9a 79 bd 7a 10 42 3c 4e c1 a6 3c
       0.09064082 -0.06093804 0.011844749 0.020355847

fc1.bias f4 [128]
000000 50 73 3a bc 3d 9a 29 bc 74 2d fe 3b da 38 26 3c
       -0.011380032 -0.010351715 0.0077568833 0.01014539
000010 26 e5 08 3c 51 19 68 3b 80 5b 38 bb 36 6b 1c bc
       0.0083554145 0.003541548 -0.002813071 -0.009547045
000020 a4 1d f1 3b 21 4f be 3a 94 7f 26 3b a8 3a 0f 3c
       0.0073582698 0.0014519432 0.0025405632 0.008742012
000030 27 05 16 bc 8a 86 4b 3c 5b e2 3d 3c 2b 1e d8 3b
       -0.009156502 0.012422213 0.011589612 0.006595393
000040 69 3c 2c bc 05 f8 35 bb 9a 5b 7f 3c 3d cd 16 bc
       -0.01051245 -0.002776624 0.015585804 -0.009204206
000050 31 a7 3e bc 19 a8 37 ba 3f 2b 9f 3a 4c 66 3f bc
       -0.011636541 -0.00070059445 0.0012143626 -0.011682104
000060 52 e1 36 3c 3c b5 df 3b 4b ae 74 3c 00 00 00 00
       0.011162119 0.0068270247 0.014934133 0.0
000070 5f 26 3d bb f8 76 02 bc db f4 27 39 08 8d 4a 3c
       -0.0028861982 -0.007962935 0.00016017577 0.012362726
000080 b9 fd e6 3b c5 fb ce bb eb e2 8e bb 7a cf 79 bc
       0.007049289 -0.0063166344 -0.004360547 -0.01524722
000090 49 01 4e 3c 5e 04 3d bc 1e 30 f8 ba df d5 85 bb
       0.012573549 -0.011536686 -0.0018935238 -0.0040843333
0000a0 e0 d5 81 3b 84 3f 4b 3c 09 5b 53 3c 67 85 55 3c
       0.0039622635 0.01240528 0.012900122 0.013032294
0000b0 31 78 a2 3a ca 2a 85 bb 72 9d 8c bc 28 e4 36 bc
       0.0012395439 -0.0040639387 -0.01716492 -0.011162795
0000c0 74 42 67 3c 13 69 42 bc 38 ce 7b bc d5 53 be 3b
       0.014114965 -0.011865872 -0.015368991 0.0058083334
0000d0 3b 4b 00 bc 8a 3f 90 3b 19 78 1f ba 0d e1 8a bb
       -0.007830436 0.0044021057 -0.00060832646 -0.004238254
0000e0 b9 1c 2c 3c 66 bc 04 3a 48 04 20 3c af a1 20 bc
       0.010504895 0.0005063474 0.009766646 -0.009804173
0000f0 8a f5 7c bc 16 ea 03 bb 93 08 83 3b 05 e0 e0 3b
       -0.0154394 -0.002012854 0.003998825 0.0068626427
000100 0d 0b 58 3c 1d 41 22 bc 1d c5 48 3c cd 4e 18 bc
       0.013186228 -0.0099032195 0.012254027 -0.009296131
000110 54 49 3a bc 5f a4 10 bc 7e e7 17 3b 94 22 ed bb
       -0.011370022 -0.008828252 0.0023178752 -0.007236788
000120 65 6d 47 3c 43 11 4a 3c 53 61 1d 3c f0 5e 20 bb
       0.012172078 0.012333217 0.009605723 -0.002447065
000130 17 81 a6 ba da ef 3b bc dc 6a 34 3c a7 bc e5 ba
       -0.0012703267 -0.011470759 0.011011805 -0.0017527536
000140 04 d0 33 bc 24 fe 69 3c 69 b6 8f ba fc f6 00 3c
       -0.010974888 0.014281783 -0.0010964397 0.007871386
000150 cc b2 59 bc af 4d 28 bc d5 bc c9 3b 35 f6 5f 3b
       -0.013287257 -0.010272427 0.0061565437 0.003417385
000160 7c 6f aa bb 45 79 51 3a f4 eb fe bb 6c ad 80 bc
       -0.0052012783 0.0007990788 -0.0077795926 -0.015707694
000170 2a a7 ae bb d4 0d f6 3b 6b c7 7b 3b f1 73 2f bc
       -0.005329986 0.0075089727 0.0038418423 -0.010708795
000180 dd 13 9d 3b c8 c4 2c b9 45 4d ac ba 21 89 45 3c
       0.0047936277 -0.00016476505 -0.0013145587 0.01205662
000190 e7 6a 8b bb 1b b1 50 bb bc ff ef 3b b8 85 26 ba
       -0.004254687 -0.0031843844 0.007324187 -0.0006352323
0001a0 4c 4e 07 3c 5b 1a 3d bc 5a 2c 06 3c 31 84 ac bb
       0.0082584135 -0.011541928 0.008189285 -0.005264782
0001b0 55 cd fe 3b e9 25 fa bb 98 e2 18 3c d9 e4 08 ba
       0.0077759423 -0.007633914 0.009331368 -0.0005222089
0001c0 fa ff 06 bb 3c 2b 77 3c 55 9f 05 bc e0 76 e6 bb
       -0.0020599351 0.0150859915 -0.0081556635 -0.007033214
0001d0 c5 6e 30 3c 6c 2d 5d 3b 02 63 d4 ba 56 81 81 bc
       0.010768597 0.0033748997 -0.0016203823 -0.015808742
0001e0 13 1b 5e 3b a7 ef e0 bb b5 61 06 ba 95 35 6d 3b
       0.003389065 -0.0068645063 -0.0005126254 0.0036195267
0001f0 04 de 96 3b be 72 35 3c 02 46 13 3c df 31 c9 ba
       0.004604103 0.01107472 0.008988859 -0.0015349946

fc2.weight f4 [3, 128]
000000 de 96 af 3d 31 3d e4 3d 47 40 f0 bd a2 e2 1d be
       0.085736975 0.11144484 -0.1173101 -0.15418485
000010 32 08 8d be 71 44 b0 3e ad 80 1e 3e 08 b5 21 3e
       -0.27545315 0.34427217 0.15478773 0.15791714
000020 66 1f 89 3e ef 91 77 be a8 6c e0 bd 06 d0 7d 3e
       0.26781768 -0.24176763 -0.109582245 0.24786386
000030 7d 5e a9 be e5 00 e6 3b 2a a1 d9 bd 91 25 5a bd
       -0.330799 0.0070191496 -0.10626443 -0.053258482
000040 be e5 63 3e 38 6d 3b 3e d3 37 00 be b3 e7 4b 3e
       0.22255608 0.18303382 -0.12521295 0.19912605
000050 81 9a 5c 3e 81 7f b4 bd 78 34 40 be 76 ca 4d bd
       0.21543314 -0.08813382 -0.18770015 -0.05024191
000060 9e ce 86 3e eb 32 5f be 0d d6 86 bd 59 cc 47 3e
       0.2632951 -0.21796767 -0.06583796 0.19511546
000070 df ad ef 3d 80 23 62 be 67 21 01 bf ec ac 3a 3b
       0.11703085 -0.22083855 -0.5044159 0.0028484417
000080 e8 be 85 be 86 e2 50 3d 72 f8 05 be 9c 3c 3e be
       -0.26122212 0.05099728 -0.13083056 -0.18577808
000090 1e 73 11 3e 61 0b 73 bd 17 2a 05 3e 99 87 10 3e
       0.1420407 -0.059337024 0.13004337 0.14114226
0000a0 91 61 76 3e 2f 19 e4 bb c5 24 79 3e c6 8d 58 3e
       0.24060656 -0.00696101 0.24330433 0.21147832
0000b0 bf 20 a1 be 4e 37 89 3e 8e 25 00 3d 20 0d 7d be
       -0.31470296 0.26800007 0.031285815 -0.24712038
0000c0 f6 d6 6b 3d 77 15 f2 bd 50 0f 80 be 2a 1f ea bd
       0.05757805 -0.118205 -0.25011683 -0.11431725
0000d0 e8 2f ae 3d a9 9f a4 3e 05 4e 57 bd d7 ec c2 be
       0.08505231 0.3215306 -0.05256464 -0.3807132
0000e0 b3 0e 16 bf c6 20 0a bf c9 ee 36 be 5a fa 2e 3e
       -0.5861618 -0.5395626 -0.17864527 0.17087689
0000f0 eb e7 b2 3c 33 74 31 3e 23 2c 67 be 0c 72 ba bd
       0.021839103 0.17329483 -0.2257543 -0.09103784
000100 5a 1f 29 3d 44 6d 1c be 3e 8a 4e 3e 70 1c 78 be
       0.041289665 -0.15276057 0.20169923 -0.24229598
000110 dc f1 c3 3d c7 ac 8e be 4e 3b 42 be f2 f6 de be
       0.095676154 -0.27866194 -0.18967935 -0.4354778
000120 ec d2 32 3e 1d 6b 7d 3e 87 a4 8e 3d e7 ea 96 be
       0.17463273 0.24747892 0.06964975 -0.2947609
000130 a7 ab 3e 3e 6f 2a 9d be d8 e5 48 bd 57 9c 1a 3e
       0.18620168 -0.30696437 -0.04904732 0.15098701
000140 16 c7 88 be 80 e2 9d be 62 a3 58 3e 4a b4 74 3e
       -0.2671439 -0.30836868 0.21156076 0.238969
000150 0c 84 0b bd c0 7c 7f bd 68 0b df bd 06 cc 42 be
       -0.034061477 -0.06237483 -0.108908474 -0.19023141
000160 e0 ac c9 bd 3a b1 7c 3e ee 35 69 3e ba 3e 53 bc
       -0.098474264 0.24676982 0.22774479 -0.012893373
000170 98 5c a5 be bd 83 37 3e 95 63 89 be 3e c8 b7 3d
       -0.32297206 0.17921348 -0.26833788 0.0897374
000180 68 41 35 3e 42 d9 1f 3d 2f a0 a1 bd be ab e7 3d
       0.17700732 0.039025553 -0.07891881 0.11312054
000190 63 0b 9e be 07 a1 a0 be 59 ff 12 be 6d 5f bf bd
       -0.30868062 -0.31372854 -0.1435522 -0.09344373
0001a0 ea b7 83 3d 7a c7 3d be 9a 81 10 be e0 2a 84 3e
       0.06431563 -0.18533126 -0.14111939 0.2581396
0001b0 d1 be 78 be 39 5a fa 3d 2a d6 14 3e e7 57 4e be
       -0.2429154 0.1222424 0.14534822 -0.2015072
0001c0 59 c7 d7 3d bf b4 5d 3e b8 d1 8b be 36 7d cb bd
       0.105360694 0.2165098 -0.2730844 -0.099359915
0001d0 84 40 70 3e f8 e2 16 be 1f e0 73 bd 18 1e a4 be
       0.23462111 -0.14735019 -0.05953991 -0.3205421
0001e0 1e 91 86 3e 75 b4 36 3e 1c 71 3d 3e 1c 86 17 be
       0.2628259 0.17842276 0.18500179 -0.14797252
0001f0 24 f3 5e be 40 f7 24 be 50 dc 9a bd a1 4f 0f be
       -0.21772438 -0.16109943 -0.075615525 -0.1399522
000200 03 6b 34 be c0 a0 9f be 0d 6c 85 3e b4 e8 bb 3d
       -0.17618947 -0.3117733 0.26059 0.09175244
000210 2c 3c 4e 3e 26 43 93 bd 42 59 2f 3e 54 c6 87 bd
       0.20140141 -0.07190542 0.17123893 -0.06629625
000220 ce 88 60 be 44 3d 09 bf 22 9d 75 3e 65 9c 02 3d
       -0.21927187 -0.5360911 0.23985723 0.03188743
000230 52 c2 69 bd 5b b4 9a 3e 98 d5 6c 3c 70 dc a9 3e
       -0.057070084 0.30215725 0.014455222 0.33175993
000240 30 41 c4 bd 0b 0a 39 be 53 be af 3e d9 11 92 be
       -0.09582746 -0.18070237 0.34324893 -0.28529242
000250 25 08 8d be 9d fd 2b be cc 4c 6f 3e 67 a8 96 be
       -0.27545276 -0.16795965 0.2336914 -0.29425356
000260 fe d8 c9 bc 44 68 25 3e 81 1b 08 3e 63 71 25 be
       -0.024639603 0.16153055 0.13291742 -0.16156535
000270 39 c9 1e be 76 d0 e1 3c 2b a8 5d bd 8f 44 41 be
       -0.15506448 0.027565222 -0.054115456 -0.1887381
000280 2a 3c 60 3e 78 c6 84 be 93 5e 93 3d 90 a5 da be
       0.21897951 -0.2593267 0.07195773 -0.4270444
000290 18 31 fc 3d b6 a3 8e 3b c9 4b 07 be f1 b9 a3 be
       0.123140514 0.004353012 -0.13212503 -0.319778
0002a0 d0 66 88 be 46 7b 7e bd be b5 92 3e 54 82 15 3e
       -0.2664094 -0.06212928 0.28654283 0.14600497
0002b0 7f ee 5b 3e 17 a5 82 be 38 24 c6 be 17 83 7f be
       0.21477698 -0.2551658 -0.38699508 -0.2495235
0002c0 c9 e3 70 3e e5 5b 88 be 40 41 85 be 35 9c fa 3d
       0.23524393 -0.2663261 -0.26026344 0.122368254
0002d0 f7 97 8e bd 40 07 29 be 47 57 3d be fd 67 6b 3d
       -0.06962579 -0.16506672 -0.18490325 0.057472218
0002e0 41 9f 3b 3d e6 1c ac 3e 40 ee 03 3e 05 e0 51 bd
       0.045806173 0.33615798 0.12883854 -0.051239032
0002f0 91 85 5e bd 2b f7 ce bb 16 98 91 3e 60 95 16 3e
       -0.054326598 -0.006316086 0.28436345 0.1470542
000300 39 ce 30 bd e6 8d 7d be 47 f3 9e 3d d8 43 d2 bd
       -0.04316542 -0.24761161 0.07761245 -0.102668464
000310 9e 6b 5d be 81 3e 0e be 76 36 56 3e 51 10 3f be
       -0.21623084 -0.13891031 0.20919213 -0.18658568
000320 d0 4f 72 3e 0d 63 08 3e d0 5b a0 3e ba 6e 56 3d
       0.23663259 0.13319035 0.31320047 0.05235169
000330 11 ce 94 3d 31 f7 48 be 68 05 97 3e f4 9a 19 be
       0.072658665 -0.19625546 0.29496312 -0.15000516
000340 09 78 63 be cc bc b0 3e b7 e9 fd bd 72 f0 36 be
       -0.22213759 0.3451904 -0.12398093 -0.1786516
000350 d0 3e 90 be ee 93 25 be d0 d3 fc be f9 80 70 3e
       -0.28172922 -0.16169712 -0.4938035 0.23486699
000360 2c c1 e7 3d a9 ed 9c be 01 ad b7 3c 82 a7 85 be
       0.113161415 -0.3065007 0.022421362 -0.2610436
000370 b9 87 81 bd 31 22 46 be c5 66 9d 3e 87 ab 03 3d
       -0.06324715 -0.1934898 0.3074247 0.032146003
000380 b7 07 3c be d1 4b e5 3a b8 16 f0 3b bb ee a8 3d
       -0.18362318 0.0017493909 0.007326927 0.08248659
000390 b1 6c 21 be 67 d7 86 3d 40 6d 2e 3e e5 69 9f 3d
       -0.15764119 0.065840535 0.17033863 0.0778387
0003a0 02 a1 b2 3e 67 0f 6f bd d5 e3 61 3e 1d f3 34 be
       0.34888464 -0.0583643 0.22059567 -0.17670865
0003b0 6c b7 a2 3e 09 7e 4a bd d9 97 cd 3c 1f df 75 3e
       0.31780565 -0.049436603 0.02509682 0.24010895
0003c0 4c ad 58 be c2 ba 0e 3e 1c 94 08 bd 2e fe ee 3d
       -0.21159858 0.1393843 -0.033344373 0.11669575
0003d0 91 d3 44 3e d4 e9 0c 3e e7 24 f1 3d 4c d1 c6 be
       0.19221331 0.13761073 0.11774617 -0.38831556
0003e0 f9 9e 74 be 6f 12 fa bd ba a6 01 3e 7d 15 4c 3e
       -0.23888768 -0.12210547 0.12661257 0.19930072
0003f0 01 2f 97 3c db b3 4b 3e bc 6c 29 3e 05 18 1d be
       0.01845503 0.19892828 0.16545385 -0.15341194

fc2.bias f4 [3]
000000 76 2d 09 3b df 78 4c 3c 68 3b 79 bc
       0.0020931638 0.01247999 -0.015211917
