model_params_from_cv2/CNN/subject2_cv2_CNNmodel_parameters.pth (torch, 751916 bytes, 8 tensors)

conv1.weight f4 [32, 1, 3]
00000000: 3079 8e3d 5113 0c3f 2893 1c3e 55b0 aa3e
00000010: 50a8 a53e 57d2 d43e 8a69 a0be a511 a5be
00000020: 8dd1 a53d 6ccd 563d 586d eb3e c728 df3e
00000030: c7f4 a43e 885e 92bd b1c8 bc3e 39b9 883e
00000040: 6fc0 d4bd 3eb2 353e 8e18 adbe 70f9 5abe
00000050: 7715 ad3e 596e b43e 87dc 1d3e bcf1 9dbe
00000060: 2708 37be 00a8 fc3a c26e 4abe a287 bbbd
00000070: 6d27 fabd 1e7d 71be bbac bf3e 9a21 64bd
00000080: 5c42 ffbd 74dc 8c3e 81eb dbbd 7eab 84be
00000090: d712 15be eaf1 30be 40bd a8bd 646f 9dbe
000000a0: c693 debe 9f25 a63e 3c04 fbbd 3e0a 8ebd
000000b0: b081 04bc 400b 9e3d 4347 db3e 68fd 01be
000000c0: b8f1 a63e 2e12 e03e d65a b23e c9c2 08be
000000d0: 800d 163f 42b2 fabd 21a6 2ebc 267c 123f
000000e0: ef02 bfbd 718e f6bd 498a bf3e 9464 e43e
000000f0: 4fe1 c03e dcbf c83e 4a55 d6be 01db 73be
00000100: 38a3 e83d ad0a be3e 8829 9b3e 1c4d 563e
00000110: f9c4 c43d c471 853c b7a5 dc3e d11d fd3e
00000120: 6c05 983e 19e6 1c3f 4ec8 75be b3e2 3ebe
00000130: 9a2d 56be 08b3 d3bd b7f6 c9bc 6efb 983e
00000140: 1ef0 a33e 8216 5d3e 0ccc 073f f57a 473e
00000150: 2d14 95be 4ea2 cbbe 3b93 1b3e 0a99 d73e
00000160: a397 3e3e 27d5 783e fdc9 02be fb55 923e
00000170: 5c3e e43e a8e8 d03e 4a6c c63d eebf e43b
0.069567084 0.54716974 0.1529051 0.33337656 0.32354975 0.41566727 -0.3133052 -0.32240024
0.08096609 0.052442 0.4598186 0.43585798 0.32218 -0.07146937 0.36871865 0.26703814
-0.10388266 0.17743775 -0.33807796 -0.21384215 0.3380544 0.3524044 0.15416156 -0.3084849
-0.17874204 0.0019276142 -0.19768813 -0.09156729 -0.12214551 -0.23582885 0.3743647 -0.055696107
-0.12463829 0.27511942 -0.10738278 -0.25912088 -0.14557968 -0.17279783 -0.082392216 -0.30749047
-0.43472117 0.32450578 -0.12256667 -0.06935547 -0.008087561 0.077169895 0.42827806 -0.12694323
0.32606292 0.4376387 0.34834927 -0.13355555 0.5861435 -0.12241031 -0.010659725 0.57220685
-0.093267314 -0.12038887 0.3741019 0.44607985 0.37671897 0.39208877 -0.41861945 -0.23814012
0.113592565 0.3711752 0.30305123 0.20927852 0.09607882 0.0162896 0.4309518 0.4943681
0.29691637 0.612886 -0.24002191 -0.18641166 -0.20915833 -0.10336882 -0.024653776 0.29879326
0.32019132 0.21590617 0.53045726 0.19480498 -0.29116955 -0.39772266 0.15192883 0.42108947
0.18612532 0.24300061 -0.12772365 0.28581223 0.44578826 0.40802503 0.09688623 0.0069808876

conv1.bias f4 [32]
00000000: 1f87 f33b 6350 f03a 2503 f83c 486e 8e3c
00000010: 7f45 993c 27ab ddb9 5626 eb3c 33de 753b
00000020: 0000 0000 0000 0000 16e1 bb3a fd6a 753b
00000030: 0000 0000 79fc 303d 0000 0000 517f a6b9
00000040: d518 a7ba cccb 393c 7065 923c 4956 12ba
00000050: f1f5 2c3b df3d 023d c3b4 62ba 68da b238
00000060: 2974 7739 0000 0000 03c4 423c f2c6 8bba
00000070: c8ad 1b3d f070 80ba 2d61 9439 5693 f2b9
0.007431879 0.0018334504 0.030274937 0.01738657 0.018709896 -0.00042279923 0.028704803 0.0037516474
0.0 0.0 0.0014334049 0.0037447803 0.0 0.043209527 0.0 -0.00031756845
-0.0012748489 0.011340093 0.017870635 -0.00055823155 0.002639171 0.031797286 -0.00086481514 8.528383e-05
0.00023599029 0.0 0.011887553 -0.0010664149 0.038007528 -0.0009799283 0.0002830116 -0.0004626761

conv2.weight f4 [64, 32, 3]
00000000: 9fbe 523e 57f9 bdbd 8a22 073e 30d9 32bd
00000010: 3861 0d3e 618d 643e 163c 85be 6e83 c53d
00000020: fe95 f9bc a789 213e 2f3d 91bd c9bc 853e
00000030: 2cfd 8e3d d6b3 cebd 7d6a 253e 38e9 e53d
00000040: a78c 03be f0b9 103d 6d26 8bbe e273 233e
00000050: 60aa a43d c875 443e f1bc 87be fd28 043e
00000060: b0b0 123e 000f c73b ea5e 07be 3152 d8bd
00000070: a4bf d53d e857 333d 3a21 ae3d e1de 98be
00000080: 98a3 643e 984a 9f3e 2f0e bfbd 0dd7 433c
00000090: 5072 3d3d f4f4 dfbd e7ca a2bd 101b a5be
000000a0: 4464 8c37 f292 0abd 900a 013e 902a 013e
000000b0: fb14 bbbd 607f 943e 4553 77be e47a 913d
000000c0: bcbd 323e fbc8 803d 0f2d 823e 9358 e63e
000000d0: 8193 74bd 0c1e 33bd c8a0 9f3e 4d28 4bbe
000000e0: 3679 bb3c 1d4d a03e 1d6d d83d 8af9 9c3e
000000f0: 2664 493e bb26 9ebe 02e7 cdbd b23e 26be
00000100: 1349 b43c 2805 6b3e 1b83 683d 5472 90bd
00000110: 9c12 413e a5f7 383e 693b eabc 8b45 1b3e
00000120: 83ed 4cbc 5a6b 80be a77a c63d 2c68 0e3e
00000130: 880a c6bc 3314 a7bd c25e 2f3d c9d2 083e
00000140: 800d 6c3e 7f3c 283e 64d9 f93c 19d0 af3d
00000150: f97c 3abe 3ccb b33d 92e4 edbb 14e7 50bd
00000160: 102d 473d 21d0 403e 691a 313d 0008 e6ba
00000170: 0a94 813e ab65 9d3d 28dd 2ebe 74a1 063d
00000180: 4898 95bc 120f 4e3e b60a c73d 3de6 003e
00000190: 8c12 5f3e e586 1f3e 10d1 d43b 101c aabd
000001a0: b3ab 3ebd cb5b 173e 930e 3d3e 2cb5 c8bc
000001b0: 7a38 79bd 7e2c b03d 8bd8 cf3d bc60 42bd
000001c0: d219 08bc a640 003e 18b1 dcbc 4763 c2bd
000001d0: d982 923d 6cbf 64be a0b7 08bd 866f bbbc
000001e0: b4ca 31bd accd f43d b035 64bc 78e8 ee3d
000001f0: 30bb a63d 40d4 81bd ace2 b8bc 4bca 8e3e
00000200: 9785 ad3d a53b 9dbd 7632 1e3e 6d2a dc3d
00000210: 0b25 83bd 00ea ae3b 7c22 0bbe a631 b83d
00000220: 875e 1ebe d45d 8b3d 66d7 3bbd f4aa e23d
00000230: bc24 f8bc a7f2 2ebe b0a2 e23d df23 21be
00000240: a6e2 303e 3cb5 aa3d 5e44 073e b064 24be
00000250: c80f aa3c 15a1 6dbd b093 d3bd ff05 c63d
00000260: 3d36 d2bd fda0 793e f562 253e bfd7 6ebd
00000270: 1c24 fbbc bd2e d13d 3a03 2cbe 193c f03d
00000280: a245 403d 51dc bdbd 14d6 97bd b9ca c9bc
00000290: a6e4 51bd 6f1e 6e3d 577d 673e 4c40 563d
000002a0: de27 29be ab8f 653e 7183 39be 9595 b6bd
000002b0: d07c f33d 54b7 7c3d b316 32bd c4e5 4d3e
000002c0: f9ea 84bd 7abe d8bd a368 fe3c c019 823c
000002d0: 6a7f 483d bf5a e7bc 4a59 2cbd f9dc 223d
000002e0: 4e5d 3d3e 43a6 b6bd 5bef 6a3e 6a36 b73d
000002f0: 8716 1c3e c407 bfbd 7db0 5d3d 91d6 f13d
00000300: b058 82bd 881e d0bd 92b0 e23c 2219 12be
00000310: 9843 cfbd aecd 25be 72f4 7d3c c9de 293e
00000320: 778e 88bd 8f5f be3d d81f 53bc dad7 793d
00000330: a151 393d a4e6 6b3d 44d1 5f3d fec0 b6bc
00000340: e815 9f3c 5c0e 04be c2d5 863d 7ec4 35bc
00000350: 3ed6 113d 172b ba3d c99d fb3d 0b98 1ebe
00000360: b611 063e 9241 cfbd d079 483c 406d 043e
00000370: e029 0cbe 6a0e 023e 5584 1dbe 790f 1dbe
00000380: d593 12be 1b5a d43d 6835 97bd 7027 42be
00000390: 96c2 063e 5815 b53d 7a92 cc3d 0645 f83d
000003a0: 3c89 653d da60 a03d 308a 23bc 6659 8c3d
000003b0: 4c35 99bd 7ada 34bc 71e0 27bd a3c2 20be
000003c0: 763f 46be 53fd 8a3d 6b21 35be 611a 573d
000003d0: 3065 e33d e7fc 943c a178 f73d 9c50 06be
000003e0: a796 9b3d 26dd 38be 29f1 53bd e8c2 1dbe
000003f0: 5ab8 d63d 6dd5 cf3d 97d8 b7bd 252c 83bd
0.20580529 -0.092760734 0.1319677 -0.043664157 0.13806617 0.22319557 -0.26022404 0.09644209
-0.03046703 0.15775166 -0.07091748 0.26120594 0.069818825 -0.10092895 0.16153903 0.112261236
-0.12846623 0.035333574 -0.27177754 0.15962175 0.08040309 0.19185555 -0.26511338 0.12906261
0.14325213 0.006074786 -0.132198 -0.10562552 0.10436943 0.043785006 0.08502431 -0.29857543
0.22328031 0.31111598 -0.09328877 0.011953128 0.046251595 -0.10935393 -0.07948857 -0.3224721
1.673599e-05 -0.033831544 0.12601686 0.12613893 -0.09134861 0.2900343 -0.24152859 0.07103518
0.1745519 0.06288334 0.25425002 0.44989452 -0.059710983 -0.043729827 0.31177354 -0.19839592
0.022884946 0.31308833 0.10567687 0.30659133 0.1966711 -0.30888924 -0.10053827 -0.16234854
0.0220075 0.22951186 0.056765657 -0.07053056 0.18854755 0.18063219 -0.028592782 0.15163247
-0.012507799 -0.25081903 0.09691363 0.13906926 -0.024174944 -0.081581496 0.042814977 0.13361658
0.23052025 0.16429327 0.030499168 0.08584613 -0.18211736 0.08778998 -0.0072599137 -0.051001623
0.04862696 0.18829395 0.043238077 -0.0017549992 0.25308257 0.07685407 -0.17076552 0.032868817
-0.01826109 0.20122936 0.0971884 0.12587829 0.21784419 0.15578802 0.0064946488 -0.08306134
-0.046550464 0.1478111 0.18462591 -0.024500452 -0.060844876 0.08602236 0.10148724 -0.047455534
-0.008306937 0.12524661 -0.026939914 -0.09491592 0.071538635 -0.22338647 -0.033378243 -0.022880327
-0.043406203 0.11953291 -0.013928816 0.11665434 0.08141172 -0.063393116 -0.022569023 0.27888712
0.08472746 -0.07677392 0.15448937 0.107502796 -0.0640355 0.0053379536 -0.13587373 0.08993845
-0.15465747 0.06805006 -0.045859717 0.11067763 -0.030290954 -0.17084752 0.110661864 -0.1573634
0.1727396 0.08335349 0.13209674 -0.16054034 0.020759478 -0.058014948 -0.103309035 0.096691124
-0.102642514 0.24377818 0.1615103 -0.05831122 -0.030656867 0.10213993 -0.16798106 0.11730213
0.046941407 -0.09270538 -0.07413879 -0.024632799 -0.051243447 0.058134492 0.22606407 0.052307412
-0.16519114 0.22418086 -0.18116547 -0.08915249 0.118890405 0.061698273 -0.04347868 0.2010718
-0.0649013 -0.105832055 0.031055754 0.01588142 0.048949637 -0.028241513 -0.04207734 0.039761517
0.18492624 -0.08918431 0.2294287 0.089459255 0.15242968 -0.09327653 0.05412339 0.118085034
-0.06364572 -0.101620734 0.027672086 -0.142674 -0.10120314 -0.16191742 0.015500175 0.16588892
-0.06667798 0.0929557 -0.01288601 0.060996868 0.045243863 0.057593003 0.05464293 -0.022308823
0.019419625 -0.12896103 0.0658374 -0.011094211 0.035604708 0.0909025 0.122859545 -0.15487687
0.13092694 -0.101199284 0.012236074 0.129323 -0.13687849 0.12700811 -0.15382512 -0.15337934
-0.14314206 0.10368749 -0.07383233 -0.18960357 0.13160166 0.088419616 0.09988876 0.1212254
0.05603908 0.07830973 -0.009981677 0.06852989 -0.07480869 -0.011038417 -0.04098553 -0.15699248
-0.19360146 0.06786599 -0.17688529 0.05251539 0.11103284 0.018187 0.12083555 -0.13116688
0.07597094 -0.18053111 -0.05174366 -0.15406382 0.10484381 0.101481296 -0.08976858 -0.06404904

conv2.bias f4 [64]
00000000: 12e1 4e3b e28d 1f3c 48a3 ae3c d424 c53c
00000010: 2078 9d3c 6823 6f3c bd06 7cbb f1ae 723c
00000020: 22cb 553c 0da8 823c 7a9a 97bb 81ba c5bb
00000030: 135a 953c c1f7 a03c 6d76 023c f008 2a3c
00000040: 22af ff3b 4e79 7e3c 6826 423c 9a3e e4b9
00000050: 57b1 053c 0aa2 ff3c 5364 d139 d37b 1e3c
00000060: 0ee0 563c 8b5b 703c 78ff df3b 409f e63a
00000070: 8857 3c3c 1989 c13c 5144 dfb9 3cbf 573c
00000080: ac4f 00ba 613e 6b3c d2c3 fc3a ba38 903c
00000090: 9c16 4b3c 55a9 f03c 948e c438 16a3 fb3c
000000a0: b714 263c b815 093b a8d8 47b8 6d6f 323c
000000b0: 280f b03c 5537 6f3b 7986 1d3c 93b9 d53c
000000c0: d64a 38bc 4f72 ccbb 99cb 88ba 4c21 cdb8
000000d0: dadc b5ba f310 9e3c 7fd4 a83c 423b e03a
000000e0: edda ac3b d9ef ab3c f341 6c3c 4ab4 c53c
000000f0: f9ff 07bc 95e3 c33c 64c8 2b3c 58fc 673c
0.0031567258 0.009738417 0.021318093 0.024065413 0.01922232 0.014595844 -0.0038456165 0.014812217
0.013048919 0.015949273 -0.0046265693 -0.006034196 0.018231427 0.019649388 0.007962805 0.010378107
0.00780286 0.015531851 0.011849977 -0.0004353419 0.008159957 0.031205196 0.00039938334 0.009673077
0.013114942 0.014670263 0.006835874 0.0017595068 0.011495478 0.023624944 -0.00042584774 0.013168152
-0.00048946845 0.014358134 0.0019284433 0.017605174 0.012395527 0.029377619 9.3725655e-05 0.030717414
0.010136775 0.0020917486 -4.7647074e-05 0.010890824 0.021491602 0.0036501486 0.00961458 0.026089465
-0.011248311 -0.0062392126 -0.0010436653 -9.781364e-05 -0.0013875023 0.019295191 0.020609139 0.0017107504
0.0052751214 0.020988392 0.01442002 0.02413382 -0.008300775 0.02391223 0.010484789 0.0141592845

fc1.weight f4 [128, 1408]
00000000: 8648 0a3d 700f 143b 0a50 aa3b 40e3 693d
00000010: ea2f 27bc 96f4 053b ba8b 33bd b07a 1abc
00000020: 3fa3 7bbd c87f 753d b40e 113d 66e4 9d3c
00000030: 5f0c 1c3d 5a4b a93c 801e 1cbd c119 c83c
00000040: 04b7 ae3b 215f 183a 1430 45bd a93a 163d
00000050: 5118 7fbb 7d8d 3ebd 7644 a1bd ae0e 3b3d
00000060: a763 3f3d 1735 77bd 320d 89bd c116 18bc
00000070: 1ee1 483d 1507 37bc 7694 54bc 4964 8fbd
00000080: 79e3 d9bc 32e4 4d3b 5895 963d 3fd9 7fbc
00000090: 91e0 02bc 780a 24bc 0f44 803c 129b 74bd
000000a0: 4cf6 283b 2664 4ebb 0a8b 033c 7296 4d3c
000000b0: 9c20 64bd 6a49 6bbd 7352 d73d 5e31 81bb
000000c0: 9557 32bc 2ce3 453d 3b8e e73c 9dce 5cbb
000000d0: 963e b43d 3285 f0bc a06f efbc f8ce 5fbc
000000e0: cfb6 3e3c fe60 21bc 0211 613d 20bc 793b
000000f0: facf 0d3d e877 033c c6cf 713d 300d f3bc
00000100: 4e04 9c3d 8b0c 383d 30df ee3c 8c02 f7bc
00000110: 2a79 de3d bdfb 723d b134 83bc 25ef adbb
00000120: 4f07 ac3c e136 253d 25b9 d4bc 6d5b e93c
00000130: 13a7 c1bc 8683 54bc 569a 94bb fe5f ba3c
00000140: 7f19 c03d 80d6 3bbd 51c6 c6bd 0d02 a63b
00000150: b1c4 743d 917b 0dbb 39b6 64bd 615e 8a3c
00000160: 1779 7a3c 0dcb 2b3d 993b d73c 01ac 583d
00000170: 93ea 0ebd a476 8cbd 23c8 343d 7e22 02bd
00000180: 9d26 3cbb ffba 6ebc 27d1 0a3d ceda 603d
00000190: 5c49 8d3d e1ce 7f3d b2bf aa3b 38c5 e83c
000001a0: 9910 7e3c 4481 acbc efb1 1a3d f0f3 0ebc
000001b0: 7299 ee3c 41d5 b8bd d67c 833d 0bfa 233d
000001c0: 454d 323d 38eb 15bd c64d 9c3d 577b 81bd
000001d0: c3de cf3c ccd7 603d ff85 1b3d 8186 463d
000001e0: abcf 3a3d 05c8 833c e989 823d b6e5 0d3d
000001f0: d257 653d 8207 59bd c3ae eabc d4d1 09bd
00000200: 0ed1 27bd 57d1 d53c bc3f 203d 9bb4 7d3d
00000210: 4800 d53d 6420 a53d c8bd 2c3c 56dd 073d
00000220: 48ce 773c a4b5 a8bd cc79 48bd b0e1 7f3d
00000230: 8a1f 813b 1958 40bc 9fef 9b3c ec40 84bd
00000240: 71b6 0dbd 142a 333c 4d7a 8c3b 55bb 90bb
00000250: 8a3b 223d 21dc 93bc b248 4d3d 3f92 2a3d
00000260: 2be0 72bd 9d0d 3d3d 4b28 2a3d af3b 21bd
00000270: b27b 913d 44dc 613d 5ef8 40bd 54b5 63bd
00000280: 28b7 273d 3027 683d 2de3 523d 5d15 6dbd
00000290: 0557 4d3d beea 63bc e078 933d 16ee 413d
000002a0: 89af 493d 2cef 70bc c702 7cbd 8c41 33bc
000002b0: 07b5 63bc 295c e43c c649 d3bc 2268 cabd
000002c0: faa4 c33c cf92 2bbc fa0d 563d bd86 363d
000002d0: 2723 6b3d 9a4e 4abc 6235 3a3b 4b54 883c
000002e0: 0860 f2bc 67bf 6cbd e365 83bd 4f34 16bc
000002f0: 14d1 9dbb f6bf d2bc 37f8 61bd 8c53 74bd
00000300: 6249 553d 6d08 12bb 5d83 093c e464 7fbb
00000310: a72d d3b9 cfbb 0cbb a2a6 15bb 8463 cb3c
00000320: a8a3 5f3d 2c87 d13c 6d59 8cbd 7c15 cebd
00000330: 31b1 853c cd79 d43d 6957 12bd 046c 223d
00000340: c64b cbbb 2cbe 023d 0d83 7f3d 0a65 b53d
00000350: a28a a73b f20c 94bd 4513 de3c 6103 53bd
00000360: 51c5 053d 4ccb 37bd f816 17bc c2e2 d83c
00000370: 6788 ed3d fab7 b53c 052a acbb 7f8a 9fbc
00000380: 3c12 193d 5f0c bdbb e4ef 8fbd f548 673d
00000390: 5ca4 e4bc 5c3a d33c 14a9 da3c 9f9d 93bd
000003a0: 940a c8bb 09f8 4dbc 61c1 29bd b7c3 7e3c
000003b0: 2207 883d 4f4b 863d b74e 5d3d 72ab b6bc
000003c0: b899 993c 99c4 37bb 204e 953d 8093 523d
000003d0: 54ad 663d aa11 6c3d 71ef 4cbd e846 a7bd
000003e0: cb17 98bd e386 0c3d 8cfd 75bd 3c8e b13c
000003f0: 7a41 00bc 00d8 643c f9f1 37bd a2aa 063c
0.03376057 0.002259221 0.0051975297 0.057101488 -0.010204295 0.0020439974 -0.043834426 -0.009428665
-0.06143498 0.059936315 0.035414413 0.019273948 0.038097735 0.020665813 -0.038115025 0.024426343
0.0053318758 0.0005812515 -0.048141554 0.036677036 -0.0038924406 -0.046521652 -0.07874386 0.045668297
0.046725895 -0.060353365 -0.0669197 -0.009282769 0.049042813 -0.011171122 -0.012974849 -0.0700155
-0.026597725 0.0031416533 0.07352704 -0.01561576 -0.007988111 -0.010012262 0.015657453 -0.0597182
0.002578157 -0.0031492799 0.008028755 0.012548076 -0.05569516 -0.05744306 0.10513773 -0.0039426526
-0.010885139 0.04831235 0.028266063 -0.0033692487 0.08801 -0.029360387 -0.029228032 -0.013660185
0.011640265 -0.009849785 0.05494786 0.0038106516 0.03462217 0.008024193 0.05903604 -0.029669374
0.076180086 0.044933837 0.029159158 -0.030152582 0.10862954 0.059322108 -0.016016336 -0.0053080493
0.020999579 0.04033554 -0.02596719 0.028485978 -0.023639238 -0.012970811 -0.004535 0.02275085
0.09379863 -0.04585886 -0.097057946 0.0050661624 0.059757892 -0.0021588544 -0.055837844 0.016890706
0.015287659 0.04194169 0.026273536 0.05289841 -0.034891676 -0.068585664 0.044136178 -0.031771176
-0.0028709539 -0.0145709505 0.03389087 0.05489617 0.06898758 0.062453154 0.00521084 0.028414354
0.015506887 -0.021057732 0.037767347 -0.008725151 0.029125903 -0.0902505 0.06420295 0.04003338
0.04353072 -0.036601275 0.076320216 -0.06322353 0.025374776 0.0548933 0.037969586 0.048468117
0.045608204 0.016086588 0.063739605 0.034642898 0.055991955 -0.052985676 -0.028647786 -0.033647373
-0.040970854 0.026100798 0.03912328 0.061939817 0.10400444 0.08062819 0.010543294 0.033170067
0.015124865 -0.0823777 -0.04894428 0.06247109 0.0039405273 -0.011739754 0.019035159 -0.06457695
-0.034597818 0.010935325 0.0042870403 -0.004416863 0.039607562 -0.018049302 0.050118156 0.041643377
-0.059295814 0.04615556 0.041542333 -0.03936356 0.07103671 0.055141702 -0.04711186 -0.05559285
0.040946156 0.056677997 0.051486183 -0.0578817 0.050131816 -0.013910947 0.072007895 0.047346197
0.04923967 -0.0147054605 -0.061526086 -0.010940921 -0.013898141 0.027875977 -0.025792014 -0.09883143
0.023882378 -0.010472014 0.052259423 0.04456209 0.05740657 -0.012347842 0.0028413166 0.016641757
-0.029586807 -0.057799723 -0.06415918 -0.009167745 -0.004816184 -0.0257263 -0.055168357 -0.05964999
0.052071936 -0.0022282854 0.008393136 -0.0038970048 -0.0004027907 -0.0021474247 -0.0022834917 0.024827726
0.054599434 0.02557715 -0.06852994 -0.100626916 0.016319843 0.10374794 -0.035727892 0.039653793
-0.0062041013 0.031919643 0.06238084 0.08857162 0.005112962 -0.072290316 0.027108798 -0.051516894
0.03265888 -0.044871613 -0.009221785 0.026475314 0.11598282 0.022182453 -0.0052540326 -0.01947522
0.037370905 -0.005769297 -0.070281774 0.05646606 -0.027910404 0.025784664 0.02669195 -0.07207798
-0.0061047766 -0.012571343 -0.041444186 0.015549592 0.066419855 0.06557333 0.054030146 -0.022298548
0.018750057 -0.0028040765 0.07290292 0.0514102 0.056317642 0.057634033 -0.050033037 -0.08167821
-0.07426413 0.034308325 -0.060056254 0.021674268 -0.007828111 0.013967514 -0.044908497 0.008219393

fc1.bias f4 [128]
00000000: a1fb e03b b037 9eb7 e7fe 0dbb 0702 2239
00000010: fd0f 4f3c 9068 2c3c 78bf 513c 787f 01bc
00000020: e4ad 8d3a 504d 4b3c 91e3 dfbb 9d09 5e3c
00000030: 724c 2fbb 9f79 00bb ff5c 6cbb f20c b6bb
00000040: ac2e 32ba c496 253b a0cc 453c 7b7d ccbb
00000050: dfd4 febb ba31 4b3c be89 473c 468f 3dbb
00000060: 0ecf 633b 2879 2a3c 3ba2 143c 8148 433b
00000070: 8e46 93ba 3087 7d3b 5483 833b dfd1 3a3c
00000080: 3280 b5bb 8044 02bc b8f5 843b 685b 5b3c
00000090: ddc0 4f3c b865 dabb 3a98 033c 3729 1a3b
000000a0: 03a7 273b 5138 a73b 69d8 513b 6773 82bb
000000b0: 4d07 e3b9 f8cf a83b b46d eb3b 478a 093c
000000c0: 2b26 12bc 2c75 7dba d316 1c3a f202 183b
000000d0: 6bff c1bb 090c 803b c7c4 f03b d459 53bb
000000e0: eb57 8abb f640 3b3c 55ba 90b9 81a3 f53b
000000f0: 3243 273c 87ee 4abb 9cad 273c 33f4 aa3a
00000100: 9683 19bc df02 163c 9fc8 9dbb 655c 8dbb
00000110: 67cf 01bb ef53 093b 59a9 a038 1b48 e6bb
00000120: 5bc0 203c 70e5 b3bb 9686 d93a 5785 60ba
00000130: db71 a9bb 87c9 063c 0688 d23b 59ed 01bc
00000140: fd24 5c3c 5c4c 6c3b 91e8 ceba c59e bd3a
00000150: ad82 4a39 249b dbbb cf24 5abb ae3c bfb9
00000160: 1905 773b 9ca4 31bc 8e86 5b3b eb66 13bc
00000170: f859 2bbc f0e3 95bb dfde 9c3b 32db 543c
00000180: 8e68 303c 2893 1dbc 2ab9 403c 36d7 363c
00000190: edfc be3b 3ed0 8b3b f223 c5ba df04 8c3b
000001a0: e8b9 f3bb 66bf 383c b1c3 113c d116 e1bb
000001b0: 988d 0dbb b117 1cbc a454 a8ba 36eb a53b
000001c0: ead3 f13b 39e5 0f3c b61e dabb bb48 77bb
000001d0: 1a04 c8b9 fb22 3b3b 2440 a5ba 04c7 363b
000001e0: c5ba e3bb a056 a2ba face 2abc 20fb 2ebb
000001f0: fb9d 6d3b 5f5e 1f3c 44ea 823b 63f4 86ba
0.006865934 -1.8861e-05 -0.0021666826 0.00015450279 0.012638089 0.0105229765 0.012801997 -0.007903926
0.001080927 0.012408569 -0.006832548 0.013552097 -0.0026748446 -0.0019603742 -0.0036066172 -0.0055557424
-0.0006797116 0.0025266865 0.012072712 -0.0062405444 -0.007776841 0.012401992 0.012178836 -0.002892451
0.0034760865 0.010404862 0.009071882 0.0029797854 -0.0011236237 0.0038685314 0.0040134583 0.011402576
-0.0055389637 -0.007950902 0.0040576123 0.013388492 0.0126802595 -0.006664958 0.008031899 0.00235231
0.0025581724 0.005103149 0.003201986 -0.003981042 -0.00043302253 0.005151745 0.0071847085 0.008394784
-0.008920233 -0.0009668644 0.0005954329 0.0023195115 -0.005920341 0.0039076847 0.0073476764 -0.0032249587
-0.0042219064 0.011429062 -0.00027604648 0.007496298 0.010208892 -0.0030964927 0.010234263 0.0013042748
-0.009369751 0.009155958 -0.0048151757 -0.004313993 -0.001980746 0.002095457 7.660938e-05 -0.0070276386
0.009811486 -0.0054899976 0.0016595896 -0.0008564791 -0.0051710433 0.008226759 0.0064249067 -0.007930123
0.013436553 0.0036056256 -0.0015785863 0.0014466873 0.00019312902 -0.006701844 -0.00332861 -0.0003647557
0.0037692247 -0.010842469 0.003349695 -0.0089967055 -0.010458462 -0.0045742914 0.0047873105 0.012991713
0.010767115 -0.009617604 0.011762897 0.011159709 0.005828491 0.0042667678 -0.001504062 0.0042730416
-0.0074379332 0.011276102 0.008896754 -0.006869175 -0.002159929 -0.009527133 -0.0012842608 0.0050634397
0.0073799985 0.008782678 -0.006656493 -0.003773256 -0.0003815003 0.0028554786 -0.0012607616 0.0027889619
-0.006949755 -0.0012385435 -0.010425324 -0.0026699975 0.0036257494 0.00972709 0.003995212 -0.0010296222

fc2.weight f4 [3, 128]
00000000: 119e 753e b154 223e a894 a13d f17e 2bbe
00000010: 3822 543e c987 e73e 3cf2 2d3d 0529 92be
00000020: 0049 553e 6502 f03d 6697 bbbe f481 853e
00000030: 1c91 a1bd 38a1 c73d 42ae cbbd ff15 67bd
00000040: fb24 113d 91d6 82be 8077 183e 062d 9fbd
00000050: 4985 21bd cd20 5d3e 1d51 2f3e c1dc 903e
00000060: 7c21 543e af71 373e 5ce4 103e e91f e7be
00000070: b69f 16be 9f30 88be 62f0 d2bc ca6e 393e
00000080: f395 11be 5348 a1bb 9ac9 a7bc 3da7 723e
00000090: 2fbe f63d ddb0 62be ed28 873e 79b9 923d
000000a0: fc8c eebd 91ed 7cbe 4639 7e3e cac4 50be
000000b0: 15cd 423e 13d0 2abd 71ea 053e 4737 873d
000000c0: 64a6 803c 3772 51be a17c 9f3d 2c01 f43c
000000d0: b99c 62bd 328f 883e 5751 823e 9ffb 1dbe
000000e0: a9b5 d33d 68ca bc3c 0ca9 553e 32a1 23bd
000000f0: c0ca 113e a755 77be e6da 413e 54d7 5ebe
00000100: 0c3f a0be 59c5 2f3e 7f53 903c 0f0d 4ebe
00000110: f202 6bbe 8a44 0a3e c037 8fbd d4a5 8dbe
00000120: 85bf 9d3d beb2 79be cb30 94be f5eb 95bd
00000130: 2881 3dbe 41cd 513e b8e5 80be 8648 34be
00000140: b9a4 c63d d0b2 8abe 5324 f8bd f30e 89bd
00000150: 2396 043e e35e 623e a9ea 55be ecc8 18be
00000160: f722 963e 0030 cb3d 228d 553d 12b3 84be
00000170: ee13 86be fa5b 2bbe fb86 18bd c63d 8a3e
00000180: 4f8b 403e 2730 a23d 86fe 5e3e 7d51 853e
00000190: 196c 7a3e 17c3 d4be 416c 543e e4e3 973d
000001a0: 1dad 943d 81ba d63d d70b 163e db37 53be
000001b0: 2a4f 2ebe ce08 8cbe b375 a53d ab0a 793e
000001c0: e92e 3e3e 37ed 0f3e 61b0 88be 690c da3d
000001d0: bae7 22be 9322 b7bd a24a 43bd 4b71 be3b
000001e0: 1356 65be b45a 4ebe 2884 ed3b 25c3 1cbe
000001f0: bfb9 45be b887 233e ae6c ee3d 8a65 31be
00000200: b43f 88bd 9c03 37bd 661c 52be f532 563e
00000210: 9716 1d3d 8741 7f3e 8711 15be db73 efbb
00000220: 55bf c0ba 7db7 043e e044 36be 20c2 8b3e
00000230: 6f8a 903e 6978 123d e758 90be 45d4 b7be
00000240: 91d4 303e 8a89 3f3e 3083 a6bd 9e38 fabd
00000250: 4087 0c3d 29aa 653d a8ed 30bd c365 ddbe
00000260: e3ee 98be 25d4 833d f738 55be 8a37 583e
00000270: 6b6f 933d d542 6d3e 185c 803c 50b2 6ebe
00000280: 6797 b23d 6f49 9bbd d12f 413e b17a d3bd
00000290: 9b7f 5bbc 1492 54bd bf5a 7a3a 1fb8 7d3e
000002a0: 0a03 703d 5c3d 543e ce53 683c bd9c d33d
000002b0: 4300 f839 071c 7d3e 590d b03d f82c 15be
000002c0: 90a5 d8be f5ce dfbd b353 7bbe c6dc 8e3e
000002d0: 0ac5 8fbe 5c00 6fbe c5dc 03be adec 813d
000002e0: 29c9 2abe 9582 dd3d 1340 58bc fd7e 8a3e
000002f0: cb73 053e b7fa be3d 5ed1 5bbe b8f3 003e
00000300: 0d96 20be f0f1 a23e fc4e 443e 5146 993d
00000310: f4d7 9d3d 0471 4a3e 6d21 ba3c 6b45 00be
00000320: e250 d3bc 0caa fa3c fa75 34bd f75d 643e
00000330: 2d3a 79be 8a11 c43d 3af0 b13d b00b b5be
00000340: e523 223e 4e65 1ebd 0da1 35be 3f18 88be
00000350: 3520 93be a8b4 0cbe 5581 2c3e 1f70 113e
00000360: a739 293c 5ee3 cebe 02cd 5e3e 088f ddbd
00000370: fde9 2abd 5764 463e 5104 0e3e 9acf 2a3e
00000380: 1ec9 82be bf20 cbbe 9e6e 5bbd 5554 65bd
00000390: 78e3 06be 34af ae3d 9f37 563e 5b2a 8c3e
000003a0: c3ea adbe 9be0 c8bd 8277 f03d adf6 28be
000003b0: da13 4dbe b542 94bd 3be2 8cbc 3875 6bbd
000003c0: 1d25 8fbe 0912 63be af13 e0bd 0452 eabe
000003d0: 2896 03be 1e3d 5d3e c10a fb3d a46a 703e
000003e0: b3b5 0abe 82b1 3dbe 536a 8cbe b2ba d93d
000003f0: a5c3 833e c5fd ec3d 1813 e93d 6d0a 503e
0.23986079 0.1585262 0.07889682 -0.16747643 0.20716178 0.45220783 0.04246734 -0.2854692
0.20828629 0.11719207 -0.36638945 0.2607571 -0.078890055 0.09747547 -0.099453464 -0.05641746
0.035435658 -0.25554326 0.14889336 -0.077722594 -0.03943375 0.21594544 0.17120786 0.28293422
0.20715898 0.1791446 0.14149612 -0.45141533 -0.14709362 -0.26599595 -0.02574939 0.18108669
-0.14217357 -0.004921952 -0.020481873 0.23696609 0.120479934 -0.2213778 0.2639841 0.07164282
-0.116479844 -0.247 0.24826536 -0.20387569 0.19023545 -0.04170234 0.13077714 0.0660234
0.015704341 -0.20453726 0.07787443 0.029785715 -0.055325244 0.2667175 0.25452682 -0.15428017
0.10337383 0.023045734 0.20865268 -0.03994865 0.14237499 -0.24153768 0.1893116 -0.21761829
-0.312981 0.17165126 0.017617939 -0.20122169 -0.22950342 0.13502708 -0.06993055 -0.2766558
0.07702545 -0.24384591 -0.28943476 -0.07320396 -0.185063 0.20488454 -0.25175261 -0.1760579
0.09699387 -0.27089548 -0.12116303 -0.066923045 0.12947898 0.22106509 -0.20890297 -0.14920396
0.2932355 0.09921265 0.052136548 -0.2591787 -0.2618708 -0.16734305 -0.037238102 0.27000254
0.18803142 0.079193406 0.2177678 0.26038733 0.24455298 -0.41555092 0.2074442 0.074165136
0.07259581 0.104847915 0.14652954 -0.20626776 -0.17022386 -0.27350467 0.0807909 0.24320476
0.18572582 0.14055334 -0.26697066 0.10646898 -0.15908709 -0.089421414 -0.047678597 0.0058118454
-0.22396116 -0.20151788 0.0072484203 -0.15308817 -0.19309138 0.15969741 0.11641823 -0.1732389
-0.066527754 -0.044681177 -0.20518646 0.20917876 0.03835162 0.2492734 -0.14557467 -0.007307512
-0.0014705459 0.1296062 -0.17799711 0.27296543 0.28230616 0.035759363 -0.28192827 -0.35904136
0.17268588 0.1870481 -0.08130491 -0.1221783 0.034308672 0.05607048 -0.043195397 -0.432417
-0.29869756 0.06436948 -0.20822512 0.21114936 0.07198986 0.23170026 0.015668914 -0.23310208
0.08720284 -0.07582366 0.18865897 -0.10326136 -0.013397123 -0.051897123 0.00095502654 0.24777268
0.05859665 0.20726532 0.014180137 0.1033263 0.0004730244 0.24717723 0.08596296 -0.14567935
-0.42313814 -0.10928146 -0.24543647 0.27902812 -0.28080016 -0.23339981 -0.12877186 0.063439704
-0.16678299 0.10815922 -0.01319887 0.2705001 0.13032453 0.09325164 -0.21466586 0.12592971
-0.1568224 0.3182521 0.19170755 0.07484115 0.077072054 0.19769675 0.022721017 -0.12526481
-0.025795404 0.030598663 -0.044057824 0.2230147 -0.24338599 0.09573658 0.08688398 -0.3536048
0.15834005 -0.03867083 -0.17737217 -0.26580998 -0.2873551 -0.1374079 0.16846211 0.14202927
0.010328687 -0.40407842 0.21757892 -0.10818297 -0.041727055 0.19374214 0.13868834 0.16680756
-0.25544065 -0.3967342 -0.05357229 -0.05598863 -0.1317271 0.08529511 0.20919655 0.27376065
-0.3396817 -0.09808465 0.11741544 -0.1650035 -0.20027104 -0.07239286 -0.017197719 -0.057484835
-0.27958003 -0.22174849 -0.10941254 -0.45765698 -0.12850249 0.21605346 0.122579105 0.2347818
-0.13545875 -0.18524745 -0.2742487 0.106313124 0.25735202 0.1157184 0.11380595 0.20316477

fc2.bias f4 [3]
00000000: c7ca 6d3b 7003 553b 268d f0bb
0.0036284195 0.003250327 -0.007341045
