model_params_from_cv2/CNN/subject1_cv2_CNNmodel_parameters.pth (torch, 751916 bytes, 8 tensors)

conv1.weight f4 [32, 1, 3]
-0.24574944 -0.052432355 0.49763194 -0.113626614 0.46284387 0.04285749 0.32643932 0.16235405
0.22732793 -0.23362759 -0.13853416 -0.17539242 -0.047781967 0.61386746 -0.08638971 -0.21432701
0.32842177 0.15370171 -0.23863667 -0.21621607 0.008277992 -0.29514962 0.29245764 0.20781058
-0.36203927 0.050734345 0.40359497 0.3196172 -0.09056924 -0.37700215 0.38742822 -0.33927143
-0.37388703 -0.08699243 -0.12451099 -0.2369918 -0.28795874 -0.47800076 0.039751895 -0.045766205
0.028427709 -0.06259877 0.29580557 0.3456352 -0.36826944 -0.2941463 -0.13658164 0.23680583
0.30176243 0.30236965 -0.5096187 0.098148465 0.25408828 -0.25941953 -0.031722736 0.48012608
0.35197932 -0.21460335 -0.18521936 -0.13145368 0.1001407 0.36822903 -0.43463364 0.32009548
0.4598237 -0.27375278 -0.18042251 0.36476234 0.3861174 -0.27206466 -0.25089195 -0.11127117
-0.09350122 0.5799031 0.08026712 -0.062235337 0.49320665 0.38098365 -0.22801192 0.5060385
0.32466778 -0.24735978 -0.056444973 0.50013673 -3.1247735e-05 -0.09398991 -0.002588138 0.23616163
0.010048622 -0.50409794 -0.54786587 -0.22335634 -0.45668924 -0.0052465815 0.4698719 -0.43559676
00000000: bea5 7bbe 4fc3 56bd 9dc9 fe3e 12b5 e8bd
00000010: dff9 ec3e 568b 2f3d 0e23 a73e 2440 263e
00000020: a7c8 683e 123c 6fbe e6db 0dbe 129a 33be
00000030: 06b7 43bd 6b26 1d3f 17ed b0bd 8a78 5bbe
00000040: e626 a83e fb63 1d3e 2c5d 74be bf67 5dbe
00000050: 6aa0 073c da1d 97be 02bd 953e 4ccc 543e
00000060: 365d b9be d1ce 4f3d 00a4 ce3e dea4 a33e
00000070: 5e7c b9bd 6d06 c1be fe5c c63e fcb4 adbe
00000080: 1f6e bfbe 1629 b2bd 9eff febd faad 72be
00000090: 546f 93be 84bc f4be e2d2 223d 5875 3bbd
000000a0: 3ae1 e83c c933 80bd d473 973e 19f7 b03e
000000b0: d08d bcbe 589a 96be 0fdc 0bbe 3a7d 723e
000000c0: 9b80 9a3e 32d0 9a3e 5f76 02bf 1002 c93d
000000d0: dc17 823e a3d2 84be b3ef 01bd 16d3 f53e
000000e0: a236 b43e fbc0 5bbe 25aa 3dbe cb9b 06be
000000f0: 9116 cd3d 8488 bc3e 4d88 debe 8ee3 a33e
00000100: 036e eb3e 5329 8cbe aec0 38be 21c2 ba3e
00000110: 2eb1 c53e 0f4c 8bbe e974 80be 24e2 e3bd
00000120: 917d bfbd 8874 143f 1663 a43d 7bea 7ebd
00000130: 9585 fc3e 4a10 c33e f57b 69be bd8b 013f
00000140: db3a a63e e24b 7dbe d832 67bd f608 003f
00000150: 0010 03b8 c87d c0bd c09d 29bb 5bd4 713e
00000160: faa2 243c 900c 01bf f040 0cbf 86b7 64be
00000170: 2cd3 e9be 84eb abbb 0d93 f03e 8a06 dfbe

conv1.bias f4 [32]
0.0062473346 0.003563606 0.015156542 0.0 -9.593357e-05 0.008366283 -0.0018505758 0.009577137
0.011701615 0.002385918 0.014017996 0.0 0.054901194 -0.004173026 0.010142935 0.018195275
0.021601943 0.0016095369 0.009927801 0.0 0.028985934 0.00055215956 -0.0013305674 0.028379694
0.013995588 0.015347602 -0.0016068291 0.006279912 0.0 0.014638484 0.020051878 0.02530011
00000000: 71b6 cc3b 638b 693b 2553 783c 0000 0000
00000010: f12f c9b8 bc12 093c 058f f2ba 6de9 1c3c
00000020: 21b8 3f3c 105d 1c3b bdab 653c 0000 0000
00000030: 13e0 603d e1bd 88bb 8e2e 263c 420e 953c
00000040: 8ff6 b03c 19f7 d23a 37a8 223c 0000 0000
00000050: e973 ed3c cdbe 103a 6f66 aeba 887c e83c
00000060: c04d 653c 8274 7b3c 3d9c d2ba b8c7 cd3b
00000070: 0000 0000 41d6 6f3c d643 a43c 2d42 cf3c

conv2.weight f4 [64, 32, 3]
0.21099243 -0.029202245 -0.23452096 -0.051670697 0.13691576 0.25780752 0.0399643 -0.030658672
0.19891164 -0.018163055 -0.09634629 -0.007118702 -0.3606733 -0.1000515 0.24419646 -0.034319885
0.0878423 0.083507255 -0.002494067 0.07220093 0.077192135 0.14324726 0.19815663 0.03107225
0.16241564 0.20787549 -0.1721993 -0.07180009 -0.1936158 0.03776158 0.09243037 0.027404498
-0.03153958 -0.07444407 0.07220091 0.1054409 0.17304437 -0.0957079 -0.10100063 -0.106207535
-0.12599367 -0.12132089 -0.1329774 -0.20502788 -0.013330335 -0.044607583 0.10883291 -0.2656763
-0.035130166 -0.23546709 0.18519421 -0.17909355 -0.29586905 0.09670401 -0.21480289 0.15854855
0.2073912 -0.10195409 -0.06070371 0.046198398 0.09719421 -0.016128799 0.20462044 -0.225752
-0.24956492 0.16842414 -0.123504825 0.15892099 0.024485365 0.18427463 -0.13952248 -0.16851617
0.05148906 0.18412328 0.18077162 -0.16126946 0.19915265 0.16821602 -0.17540067 0.23625733
-0.021326514 0.0039802142 0.12004788 -0.16058706 -0.08915965 0.06986743 -0.024157152 0.13657936
-0.12024921 0.12047538 0.051319715 -0.22950304 -0.11695767 -0.02595096 -0.15489435 0.028710034
-0.043109637 0.036749665 -0.10164018 -0.016080458 0.23403238 -0.122909345 0.042182457 0.1844926
-0.04081262 0.055681348 0.112656236 0.06715192 0.12574597 0.0807769 -0.20393789 0.09021976
0.14077048 -0.012196463 0.06770441 -0.015114569 0.13741855 0.21695806 0.0869978 0.0855079
0.23815382 -0.13879508 0.024113668 -0.012462143 0.079987966 0.018552436 -0.07308155 0.17378274
0.020985164 0.07211962 -0.021423228 -0.116157115 -0.06798978 -0.17633638 0.11109479 -0.05594817
-0.13845539 -0.026066478 -0.044436313 0.2141463 0.05021841 0.024650296 0.0699464 0.04776526
0.09818587 0.109714665 -0.0074823857 0.07068447 0.17512846 0.052533012 0.07645993 0.14906518
0.13755764 -0.12935916 0.13803211 0.041169822 0.12457293 0.09802005 -0.10301069 -0.080413915
0.18779129 -0.13164884 0.23121703 -0.005432226 -0.058781534 -0.09163047 0.016421376 0.046757303
0.07374747 0.14469555 0.047576856 -0.01164298 0.17872229 0.14705364 0.15601346 0.047711767
0.057254303 0.22322544 -0.030499725 -0.1095375 0.10814899 -0.008730516 -0.019690603 -0.00057523936
-0.051642146 0.022389645 -0.10343649 -0.09758467 -0.04953934 -0.06867636 0.2221994 -0.059216112
0.10950138 -0.18280178 0.14829712 0.16467686 -0.10187417 -0.06180607 -0.01646846 0.0058151637
0.035979226 0.06755081 0.050014928 0.14319226 0.39946288 -0.26901874 0.045018595 0.032548737
-0.11831638 0.09479842 0.058061108 -0.10952431 0.012343034 0.10577095 -0.16857502 0.036338594
0.10401845 -0.032723375 -0.023803914 0.0982922 -0.047840122 -0.1298064 0.19659281 0.16061383
-0.22419502 0.12850782 0.03295128 0.10305099 -0.21420392 0.14334768 0.18214823 0.022122366
0.14049575 -0.028105643 0.02595107 -0.04381962 -0.13795269 -0.01450406 0.09854896 0.09311851
0.20946953 -0.13334489 0.01902539 0.1787253 -0.041697558 -0.11717971 0.1697288 -0.11235643
0.00325153 -0.008699596 -0.11127735 0.1048156 0.19867541 0.009743448 -0.10178913 0.31324533
00000000: 660e 583e 8c39 efbc 4326 70be a7a4 53bd
00000010: a533 0c3e 59ff 833e 9bb1 233d e527 fbbc
00000020: 7eaf 4b3e b0ca 94bc 3451 c5bd 0044 e9bb
00000030: 2caa b8be cde7 ccbd a30e 7a3e 0293 0cbd
00000040: aae6 b33d da05 ab3d 8073 23bb 15de 933d
00000050: e916 9e3d 69af 123e 92e9 4a3e 3b8b fe3c
00000060: 4950 263e 50dd 543e 0355 30be ed0b 93bd
00000070: 3843 46be e3ab 1a3d 224c bd3d 667f e03c
00000080: a62f 01bd 2276 98bd 12de 933d 66f1 d73d
00000090: 8b32 313e 8102 c4bd 6bd9 cebd 5683 d9bd
000000a0: 7c04 01be 1677 f8bd 3a2b 08be d4f2 51be
000000b0: 7a67 5abc 71b6 36bd cae3 de3d b906 88be
000000c0: a6e4 0fbd 491e 71be 8da3 3d3e 4d64 37be
000000d0: 267c 97be c10c c63d 4af5 5bbe 8d5a 223e
000000e0: 5c5e 543e 4ecd d0bd 74a4 78bd 883a 3d3d
000000f0: c20d c73d 8b20 84bc 0588 513e 882b 67be
00000100: f28d 7fbe 6177 2c3e 19f0 fcbd 2fbc 223e
00000110: 8895 c83c 7db2 3c3e fbde 0ebe 818f 2cbe
00000120: 31e6 523d d08a 3c3e 321c 393e d223 25be
00000130: acee 4b3e d240 2c3e 3c9c 33be 71ed 713e
00000140: f1b4 aebc 756c 823b aadb f53d ef70 24be
00000150: 5699 b6bd a816 8f3d 38e5 c5bc 76db 0b3e
00000160: 3845 f6bd ccbb f63d 9f34 523d d802 6bbe
00000170: 8187 efbd 1c97 d4bc a09c 1ebe 4e31 eb3c
00000180: bb93 30bd d186 163d ba28 d0bd 2abb 83bc
00000190: 2fa6 6f3e e5b7 fbbd 83c7 2c3d a1eb 3c3e
000001a0: 222b 27bd 2012 643d 50b8 e63d f286 893d
000001b0: 8dc3 003e 5c6e a53d 18d5 50be 23c5 b83d
000001c0: 2326 103e acd3 47bc 9ca8 8a3d 19a3 77bc
000001d0: 73b7 0c3e 412a 5e3e e72b b23d c41e af3d
000001e0: 98de 733e 4c20 0ebe 078a c53c 042e 4cbc
000001f0: bbd0 a33d 47fb 973c c8ab 95bd 1af4 313e
00000200: 14e9 ab3c 74b3 933d c47f afbc c8e3 edbd
00000210: 3a3e 8bbd 8691 34be aa85 e33d e929 65bd
00000220: 40c7 0dbe 5e89 d5bc da02 36bd 2b49 5b3e
00000230: d2b1 4d3d 6bef c93c 0f40 8f3d 81a5 433d
00000240: ac15 c93d 15b2 e03d cd2e f5bb 05c3 903d
00000250: e054 333e db2c 573d 0697 9c3d 8ba4 183e
00000260: e9db 0c3e ba76 04be 4a58 0d3e b0a1 283d
00000270: 1820 ff3d bcbe c83d 45f7 d2bd 0db0 a4bd
00000280: 5c4c 403e f4ce 06be 28c4 6c3e d100 b2bb
00000290: e8c4 70bd c1a8 bbbd 1f86 863c 9684 3f3d
000002a0: ea08 973d 122b 143e f3df 423d 33c2 3ebc
000002b0: fa02 373e 3b95 163e fec1 1f3e 6a6d 433d
000002c0: 7d83 6a3d 3695 643e 8fda f9bc 3255 e0bd
000002d0: 387d dd3d 700a 0fbc 304e a1bc a9cb 16ba
000002e0: b786 53bd 7d6a b73c 83d6 d3bd 79da c7bd
000002f0: c3e9 4abd 31a6 8cbd 3d88 633e 988c 72bd
00000300: 4242 e03d 6430 3bbe 33db 173e 0da1 283e
00000310: 68a3 d0bd 5d28 7dbd dde8 86bc 218d be3b
00000320: f45e 133d 1458 8a3d 74dc 4c3d fea0 123e
00000330: 6686 cc3e d3bc 89be 6b65 383d d351 053d
00000340: dc4f f2bd ad25 c23d 7cd1 6d3d 484e e0bd
00000350: 703a 4a3c 719e d83d ee9e 2cbe c7d7 143d
00000360: a007 d53d f208 06bd 6d00 c3bc 6c4d c93d
00000370: 01f4 43bd f8eb 04be a04f 493e f477 243e
00000380: 6193 65be 8e97 033e ecf7 063d 660c d33d
00000390: 4658 5bbe bcc9 123e 1185 3a3e f739 b53c
000003a0: 1ede 0f3e ce3d e6bc 5797 d43c 347c 33bd
000003b0: 7843 0dbe 70a2 6dbc 0ad4 c93d ebb4 be3d
000003c0: 2e7f 563e 908b 08be 22db 9b3c c403 373e
000003d0: 0fcb 2abd eafb efbd 63cd 2d3e 211b e6bd
000003e0: 9f17 553b c088 0ebc 61e5 e3bd 90a9 d63d
000003f0: 9171 4b3e fca2 1f3c d276 d0bd b161 a03e

conv2.bias f4 [64]
0.023296248 0.031686552 0.02473679 0.03492988 0.04384241 0.017388394 0.017535292 0.0009462681
0.023217084 0.012166056 0.031594932 0.015234047 0.00054000015 0.00044297124 0.0018167149 0.021445591
0.0040613688 0.012945576 0.0022749195 0.0035808207 -0.010958074 0.027170105 0.031882957 0.009024926
0.02031069 -0.0012275659 0.04180522 0.024830451 0.00629666 0.013006334 0.011236793 0.036082394
0.022378327 0.01290184 0.020078752 0.004694423 4.5803805e-05 0.027852528 0.0055466946 0.017625943
-0.0046865502 0.029235855 0.024110992 0.008694898 0.026044024 0.012217243 -0.00055882725 0.047540832
0.04322486 0.03365946 -0.0015600782 0.0 0.0048387507 0.006819421 0.015188587 -0.0035726696
0.01268943 0.030024732 -0.0029223803 0.012464393 -0.00061078224 -0.00061017997 0.03044667 0.023732316
00000000: c6d7 be3c c2c9 013d cfa4 ca3c a212 0f3d
00000010: 1994 333d 1b72 8e3c 2ca6 8f3c fa0e 783a
00000020: c131 be3c 2354 473c b069 013d 3998 793c
00000030: cc8e 0d3a 983e e839 d61e ee3a aaae af3c
00000040: 3b15 853b ae19 543c d116 153b 34ac 6a3b
00000050: 7e89 33bc d793 de3c b497 023d 49dd 133c
00000060: 9b62 a63c 47e6 a0ba f33b 2b3d 3b69 cb3c
00000070: 3654 ce3b 8518 553c 871a 383c 22cb 133d
00000080: c152 b73c 3d62 533c 327c a43c add3 993b
00000090: 761d 4038 fc2a e43c 0cc1 b53b 4864 903c
000000a0: a291 99bb 0880 ef3c 6a84 c53c 0c75 0e3c
000000b0: 475a d53c d52a 483c 437e 12ba 2dba 423d
000000c0: 8d0c 313d 80de 093d 8a7b ccba 0000 0000
000000d0: 628e 9e3b 7375 df3b 8dd9 783c 7323 6abb
000000e0: 54e7 4f3c 6df6 f53c 6885 3fbb 7437 4c3c
000000f0: e71c 20ba 7cf4 1fba 4b6b f93c 466a c23c

fc1.weight f4 [128, 1408]
-0.044974096 -0.022458034 -0.056365762 -0.021009801 0.012473319 -0.05847108 0.0073679476 0.0063950378
-0.015319282 0.0063882894 0.035540678 0.027515817 -0.057272796 0.023920074 0.019017631 -0.048471853
-0.01401757 0.046149362 -0.031437516 0.034284852 0.032681223 -0.060772482 0.03578192 -0.03483055
0.048959892 0.0017003175 -0.010263335 -0.05708794 0.04381906 -0.051524077 -0.044841252 0.008252942
0.016905291 -0.031449478 -0.058274377 0.048625384 -0.043518838 0.05281024 0.029699171 0.0050852285
0.025880195 -0.006265151 0.0059781456 0.01320553 0.008191108 0.047602993 0.059414025 -0.010896216
0.025808206 -0.053221297 0.03242413 -0.018352576 -0.012308827 -0.0046614837 0.024187755 0.030046744
-0.055753656 -0.029443305 0.010982951 -0.0030153207 -0.015266891 -0.0013680914 0.03586217 0.03500634
-0.0021907273 0.012058471 0.052818414 -0.035189424 0.03331787 -0.052816316 -0.014670387 -0.02809949
0.034291483 0.014535429 -0.049517944 -0.03532208 0.035041448 -0.03528533 -0.026223062 0.0028248343
0.04353805 -0.008366475 -0.006409744 0.031065764 0.014609786 -0.0030183143 -0.015363898 -0.0316572
0.0055530365 0.026397191 0.0045292326 -0.013273931 0.046949174 0.054472633 0.009302227 0.03869948
-0.0635963 0.02619878 0.007978955 -0.058319233 0.040063452 0.0009510907 -0.02694817 -0.04913001
-0.002838437 0.04131688 0.009383675 -0.03012619 -0.04732277 0.044931907 0.028111015 -0.03753438
0.009855113 0.03543483 0.021393418 0.021395113 0.035827093 -0.039599698 0.06013015 -0.052163985
0.04741855 -0.025096081 -0.05033871 -0.004668063 -0.0067388 -0.046850618 -0.04461655 0.007324718
0.037489597 -0.021586074 -0.039438892 0.019683769 0.05525677 0.002259739 -0.05312776 0.019851517
0.02725099 -0.025999548 0.026203567 -0.012291713 0.009621444 0.057926122 0.030220106 0.037151687
-0.021066302 0.00021249698 0.02900517 -0.058700416 0.013897218 0.06117014 -0.033130694 -0.035087887
0.06154221 -0.0531994 0.050945 -0.051548555 -0.0026626978 0.011648687 -0.040571548 -0.039508346
0.032032244 -0.042358544 -0.042560622 0.058612652 0.04528655 0.00058185484 -0.03891327 -0.03893989
0.041153938 0.0084043415 -0.047383323 -0.042974625 -0.05867223 0.05328395 -0.05800773 0.03053795
0.03805877 -0.023223467 0.031371012 0.0063503124 0.0314798 -0.049976956 -0.061467025 -0.0628509
-0.05667914 0.0037804504 -0.004622167 -0.0331854 0.04927073 -0.0089547485 0.008081657 0.01877174
-0.055552118 -0.024706693 0.049285386 0.038072433 -0.056353524 -0.03301494 -0.04258495 0.056176454
-0.0524431 -0.016153399 -0.056997456 0.005651098 -0.016438993 -0.048763894 0.061737 -0.010639388
-0.057503153 -0.022012115 -0.019588297 0.0393307 0.009086928 -0.053018413 -0.057294294 0.025056336
-0.05129781 0.054470386 -0.01974578 -0.044688843 0.013620991 0.03864602 0.03350534 -0.029256605
0.034605347 0.010784525 -0.0448639 -0.026638182 -0.0024522513 -0.054277092 0.05925577 -0.049968034
0.019598717 0.012110282 -0.037598986 -0.0028592395 0.042492494 0.0038040709 0.021546766 -0.040212773
-0.004570389 -0.034168024 -0.020409796 -0.055780824 0.020928575 -0.04124065 -0.043512866 0.0456622
-0.0048670704 0.061529234 -0.06104016 -0.042999446 0.034646187 0.03838256 0.008463751 -0.041835815
00000000: c236 38bd e9f9 b7bc c9df 66bd bf1c acbc
00000010: e45c 4c3c 5f7f 6fbd d36e f13b 778d d13b
00000020: bafd 7abc db54 d13b 1a93 113d da68 e13c
00000030: e196 6abd 08f4 c33c ddca 9b3c 6c8a 46bd
00000040: f3a9 65bc 1d07 3d3d a0c4 00bd 466e 0c3d
00000050: bfdc 053d 91ec 78bd 1090 123d 7baa 0ebd
00000060: 2b8a 483d 30dd de3a 8c27 28bc 0bd5 69bd
00000070: 9d7b 333d e90a 53bd 76ab 37bd 5937 073c
00000080: f77c 8a3c 2bd1 00bd 1db1 6ebd 692b 473d
00000090: cf40 32bd 8d4f 583d ad4b f33c fda1 a63b
000000a0: b402 d43c e54b cdbb 52e4 c33b 025c 583c
000000b0: ff33 063c 5bfb 423d 1f5c 733d 0b86 32bc
000000c0: bb6b d33c 93fe 59bd 2acf 043d 2458 96bc
000000d0: f6aa 49bc 5cbf 98bb 6625 c63c 9724 f63c
000000e0: f25d 64bd 1633 f1bc d6f1 333c b09c 45bb
000000f0: fb21 7abc 8851 b3ba 36e4 123d cf62 0f3d
00000100: 4e92 0fbb e590 453c 1f58 583d c922 10bd
00000110: 5278 083d ec55 58bd 105c 70bc e730 e6bc
00000120: 3a75 0c3d 0226 6e3c 54d3 4abd e3ad 10bd
00000130: 9f87 0f3d 5a87 10bd bfd1 d6bc db20 393b
00000140: f454 323d 8a13 09bc d408 d2bb a17d fe3c
00000150: e25d 6f3c e9ce 45bb dcb8 7bbc fbaa 01bd
00000160: 3ff6 b53b ec3e d83c f569 943b e77a 59bc
00000170: c74d 403d b21e 5f3d 5e68 183c 5983 1e3d
00000180: c73e 82bd d39e d63c 2aba 023c 26e0 6ebd
00000190: 9319 243d 9e52 793a 69c2 dcbc 8d3c 49bd
000001a0: 1205 3abb e43b 293d fcbd 193c 33cb f6bc
000001b0: 85d5 41bd 850a 383d 1249 e63c a6bd 19bd
000001c0: 5777 213c 1d24 113d 4041 af3c ce44 af3c
000001d0: 6ebf 123d 4b33 22bd 084b 763d e7a9 55bd
000001e0: f439 423d 4c96 cdbc f72f 4ebd 8df6 98bb
000001f0: 27d1 dcbb 6fe6 3fbd d8bf 36bd 3004 f03b
00000200: b18e 193d 47d5 b0bc ad8a 21bd db3f a13c
00000210: ec54 623d 2118 143b 7e9c 59bd a69f a23c
00000220: 783d df3c 01fd d4bc dda8 d63c 2e63 49bc
00000230: 43a3 1d3c f143 6d3d 2890 f73c 5e2c 183d
00000240: 3d93 acbc b9d1 5e39 409c ed3c d96f 70bd
00000250: 28b1 633c 8a8d 7a3d 0db4 07bd 51b8 0fbd
00000260: af13 7c3d 9de7 59bd b4ab 503d 9424 53bd
00000270: a880 2ebb 22da 3e3c 5a2e 26bd 81d3 21bd
00000280: 3e34 033d 2780 2dbd 0c54 2ebd d213 703d
00000290: 647e 393d 9e87 183a 8563 1fbd 6f7f 1fbd
000002a0: 0891 283d 5db2 093c 0415 42bd 2906 30bd
000002b0: 4b52 70bd 4540 5a3d 8399 6dbd b92a fa3c
000002c0: 83e3 1b3d 243f bebc e47e 003d 4816 d03b
000002d0: f6f0 003d a3b4 4cbd d9c4 7bbd f9b7 80bd
000002e0: 6328 68bd 6fc1 773b 8c75 97bb 6aed 07bd
000002f0: 1bd0 493d f0b6 12bc ed68 043c 31c7 993c
00000300: 9e8a 63bd b165 cabc 79df 493d d7f1 1b3d
00000310: f4d2 66bd ac3a 07bd 8e6d 2ebd 4819 663d
00000320: 93ce 56bd 2254 84bc 2a76 69bd d92c b93b
00000330: 11ab 86bc a6bc 47bd f0df 7c3d d450 2ebc
00000340: 6d88 6bbd c052 b4bc a377 a0bc 3a19 213d
00000350: 57e1 143c d629 59bd 6cad 6abd f242 cd3c
00000360: a71d 52bd 571c 5f3d e7c1 a1bc a60b 37bd
00000370: 942a 5f3c 4a4b 1e3d e53c 093d 8cab efbc
00000380: 56be 0d3d 94b1 303c 35c3 37bd 5138 dabc
00000390: f3b5 20bb a851 5ebd 2eb6 723d 48ab 4cbd
000003a0: 7d8d a03c 346a 463c 6501 1abd 1462 3bbb
000003b0: 9c0c 2e3d b84d 793b d882 b03c 26b6 24bd
000003c0: 34c3 95bb c5f3 0bbd 7232 a7bc 6f7a 64bd
000003d0: 6772 ab3c f5eb 28bd 8c3a 32bd 4908 3b3d
000003e0: f27b 9fbb 1406 7c3d 3f05 7abd 3020 30bd
000003f0: 29e9 0d3d 0837 1d3d 8bab 0a3c 085c 2bbd

fc1.bias f4 [128]
-0.0009084721 0.015273635 0.016363813 -0.001383849 -0.005734926 0.004431106 -0.0028515076 0.005839052
0.0 0.0147705125 -0.0016819936 0.012977022 -0.0017949585 -0.0001464647 0.016488899 -0.0038837707
-0.00013580816 0.007129052 0.011526493 0.01240726 0.015707646 0.00017688294 0.011687743 0.0090547865
0.007488929 -0.00012232046 -0.00059796125 -0.0003711792 -0.0013161231 -0.00025243938 0.007409426 -0.0014756786
0.01621528 -0.0025497912 -0.00071010116 -0.0006294116 -0.00033834166 -0.00084240164 -0.0017066591 0.00692183
-0.00017281817 -0.00031755998 -0.0142089985 -0.0007853232 -0.00023972214 0.013416116 0.00676069 -0.00065756903
0.0084162615 -0.007942961 -0.00019958001 0.005246142 -0.001273408 -0.0024724624 0.014497702 0.008972364
-0.00091542426 0.005459092 -0.0011297361 -0.00195592 0.010138528 0.006473726 0.014000672 0.011256491
0.004492273 -0.0012000481 0.015551235 0.0045378376 0.0049298126 0.010837479 0.00658206 0.0060756863
0.0065164226 0.01201973 0.010647132 0.0060834927 -0.0010187855 -0.005275134 -9.066198e-05 0.005016535
-0.0010662006 0.013276787 -0.0032873186 -0.0013566398 -0.000558757 0.0143463565 0.0022126916 -0.00065537903
0.008502991 0.00040645682 0.0014168661 -0.0014431095 0.008154215 0.012827116 -0.0015391064 0.014822814
0.015005595 0.0147845335 -0.007832822 0.008548285 -0.0019349915 0.016711527 0.013615688 0.0041747857
0.0079928655 7.2831144e-06 -0.00038894336 0.005085241 -0.0026324836 0.0 -0.0004190542 0.013175676
0.0014961879 0.009371984 -0.0025500092 -0.0012089999 0.0009960617 0.007985339 -0.0014531093 -0.00035463803
0.0053764074 0.010876821 0.012568224 -0.00024171249 0.0050102435 -0.0012462821 0.010331498 -7.347974e-05
00000000: 8826 6eba 453e 7a3c 670d 863c 4462 b5ba
00000010: 0cec bbbb d032 913b 5ce0 3abb 8555 bf3b
00000020: 0000 0000 0500 723c 5776 dcba 939d 543c
00000030: d044 ebba 5294 19b9 ba13 873c dc86 7ebb
00000040: ba67 0eb9 d39a e93b 9ed9 3c3c d247 4b3c
00000050: 52ad 803c a779 3939 f27d 3f3c 875a 143c
00000060: b165 f53b 2643 00b9 80c0 1cba d49a c2b9
00000070: c381 acba d759 84b9 c5ca f23b 8f6b c1ba
00000080: e8d5 843c 661a 27bb 1526 3aba 19ff 24ba
00000090: 7363 b1b9 9ed4 5cba fab1 dfba 85d0 e23b
000000a0: 8636 35b9 2e7e a6b9 dccc 68bc 26de 4dba
000000b0: ec5d 7bb9 45cf 5b3c c788 dd3b b660 2cba
000000c0: 5ce4 093c 3123 02bc 5a46 51b9 d4e7 ab3b
000000d0: 7be8 a6ba 0909 22bb c587 6d3c d200 133c
000000e0: 15f9 6fba 2fe2 b23b a713 94ba e42e 00bb
000000f0: 121c 263c 8d21 d43b 1363 653c 256d 383c
00000100: eb33 933b ef4a 9dba 9bca 7e3c 24b2 943b
00000110: 448a a13b ae8f 313c 52ae d73b 8d16 c73b
00000120: b787 d53b 67ee 443c 4f71 2e3c 0958 c73b
00000130: c588 85ba 08db acbb c821 beb8 bf61 a43b
00000140: c1bf 8bba e186 593c 0e70 57bb 47d1 b1ba
00000150: 8c79 12ba fb0c 6b3c ce02 113b becd 2bba
00000160: 2150 0b3c b619 d539 23b6 b93a b826 bdba
00000170: 4299 053c d328 523c d7bb c9ba 63db 723c
00000180: 07da 753c d43a 723c 3d55 00bc 1b0e 0c3c
00000190: 8a9f fdba 9de6 883c 5614 5f3c a4cc 883b
000001a0: 82f4 023c 7a61 f436 18eb cbb9 18a2 a63b
000001b0: bf85 2cbb 0000 0000 81b4 dbb9 cade 573c
000001c0: bc1b c43a f38c 193c 0e1e 27bb 4e77 9eba
000001d0: 498e 823a f0d4 023c 4276 beba b6ee b9b9
000001e0: 932c b03b b234 323c f4ea 4d3c 3474 7db9
000001f0: f82c a43b 4a5a a3ba 7245 293c 2319 9ab8

fc2.weight f4 [3, 128]
-0.047758806 -0.30423456 -0.08222855 -0.17434786 0.14601155 0.2896763 0.19080186 0.19322638
0.06963487 -0.22438452 0.20828272 -0.073234215 -0.034252577 -0.21018738 -0.31024355 0.2522925
0.26145947 0.2428469 -0.19278607 -0.19247158 -0.27335235 0.05933906 -0.102138184 -0.298396
0.28810018 -0.06835386 -0.16230123 -0.04799992 -0.06253842 -0.03878359 0.18304318 -0.14224096
-0.2301618 0.049287766 0.030283889 0.1967562 -0.012810808 0.17296945 0.096044876 -0.22582918
0.053416923 0.060358442 0.27212477 0.15649314 -0.031657133 -0.12716375 0.18045451 0.067408904
-0.07002653 0.12651917 -0.12823367 0.05843867 -0.0027940425 0.17796789 -0.119886264 -0.0014820307
-0.16115887 0.1826534 0.07587156 0.059618395 -0.2946522 -0.22774558 0.008993156 -0.24057376
-0.24449088 -0.036163192 -0.2906628 0.22655989 0.20229968 0.0971704 -0.0150892725 0.2008454
-0.012950106 -0.23050864 0.05742623 -0.18870711 -0.062645145 0.21628277 0.07315072 -0.009188615
0.1970303 -0.18578117 0.2407103 -0.06914023 0.0033852537 -0.20520657 0.2885523 0.052657086
0.1406131 0.040569574 -0.14990187 0.027380504 -0.11249915 -0.2881726 -0.16261347 -0.20686054
-0.09112391 -0.26600832 0.34153175 0.10212011 0.20014404 -0.3026007 -0.12243512 0.14689061
0.3311699 -0.13345587 -0.18288806 -0.03904684 0.16978954 0.13996257 -0.12857486 -0.055084668
0.21054035 -0.27837175 -0.16047613 -0.17600313 0.2739505 0.19906919 -0.085314006 -0.059070792
0.113104485 -0.022706894 -0.24922825 0.13240792 0.3222694 0.17251651 0.0036195097 0.22498883
0.087594606 0.0936997 0.10751439 0.0393742 -0.55945903 -0.025271006 -0.20878828 -0.02680741
-0.14530393 0.0024354868 0.055360917 0.18464994 -0.31543708 0.070341155 0.16218734 -0.058742926
0.15858619 0.07300096 0.11679486 0.1298426 0.24297692 -0.052364323 0.12706697 -0.03712692
-0.13556649 0.095747694 0.15094203 -0.16921982 0.20017874 -0.32769114 0.2863367 -0.19603318
0.10151491 -0.23791273 0.1303305 0.08914076 -0.16328098 -0.07902047 -0.28226984 -0.06026717
-0.20381546 0.16194358 -0.22080037 0.16968602 0.15866871 0.15712102 -0.20335346 -0.2272703
0.29003337 -0.27617693 0.007982546 0.07256714 0.05071941 -0.27789187 0.2645337 0.15263999
-0.18125038 0.14558521 -0.2526131 -0.13206224 -0.06332098 -0.09234692 0.27340403 0.18758324
-0.21847497 0.013705994 0.22846332 0.18845372 -0.05630914 0.19753028 -0.08766444 0.19620551
0.32815257 -0.00342352 0.24473207 -0.077788904 -0.17418234 -0.2418569 0.1700711 -0.0868313
-0.27903026 0.14391825 -0.13807356 -0.16063176 -0.21878216 0.19082765 -0.07313613 0.036508437
0.2671533 0.083886094 -0.18196529 -0.30817002 0.34694302 -0.013719182 -0.108736634 0.23627616
0.25008276 0.036679912 0.033808123 0.15236278 -0.13734946 0.15026031 0.19331025 -0.10291814
0.18451147 -0.41513684 -0.02359585 0.016425837 -0.14815132 -0.09484899 -0.04145287 0.18829915
-0.20055842 -0.10237477 -0.34873298 0.087440394 -0.063783325 -0.003169609 0.14332388 -0.061024636
0.026654296 0.13624957 0.25244164 -0.11404045 -0.17358637 0.0933101 0.20450012 -0.17188235
00000000: bd9e 43bd a2c4 9bbe 7167 a8bd 3f88 32be
00000010: 0d84 153e 7450 943e 9061 433e 23dd 453e
00000020: ba9c 8e3d 0ec5 65be 1148 553e d2fb 95bd
00000030: 6e4c 0cbd 5c3b 57be 3ed8 9ebe 7c2c 813e
00000040: 04de 853e dcac 783e b669 45be 4517 45be
00000050: d7f4 8bbe 840d 733d d32d d1bd 5cc7 98be
00000060: de81 933e 1cfd 8bbd 4b32 26be 909b 44bd
00000070: 2514 80bd 8bdb 1ebd ac6f 3b3e 9da7 11be
00000080: 89af 6bbe f8e1 493d eb15 f83c 757a 493e
00000090: 6ce4 51bc e71e 313e 2db3 c43d c43f 67be
000000a0: b4cb 5a3d 6a3a 773d f053 8b3e bd3f 203e
000000b0: e9aa 01bd 3737 02be 11c9 383e ae0d 8a3d
000000c0: 126a 8fbd 3e8e 013e b04f 03be 635d 6f3d
000000d0: 411c 37bb 373d 363e ee86 f5bd b340 c2ba
000000e0: d506 25be 7e09 3b3e 8c62 9b3d 6b32 743d
000000f0: a7dc 96be 2336 69be 0858 133c f858 76be
00000100: d15b 7abe db1f 14bd c1d1 94be 51ff 673e
00000110: a627 4f3e 4601 c73d ff38 77bc 6baa 4d3e
00000120: ae2c 54bc 750a 6cbe c437 6b3d 703c 41be
00000130: 194c 80bd 3b79 5d3e 0bd0 953d d88b 16bc
00000140: 50c2 493e 6b3d 3ebe c37c 763e 6599 8dbd
00000150: 22db 5d3b ac21 52be 21bd 933e f5ae 573d
00000160: e1fc 0f3e 482c 263d e07f 19be 144d e03c
00000170: f465 e6bd 5c8b 93be 2584 26be 40d3 53be
00000180: 2c9f babd 3e32 88be 40dd ae3e 5924 d13d
00000190: 8ff2 4c3e 7bee 9abe 44bf fabd 7e6a 163e
000001a0: 1a8f a93e a8a8 08be 0247 3bbe 94ef 1fbd
000001b0: 4fdd 2d3e 5952 0f3e 21a9 03be 76a0 61bd
000001c0: e497 573e be86 8ebe db53 24be 2a3a 34be
000001d0: 3d43 8c3e cbd8 4b3e 1cb9 aebd 37f4 71bd
000001e0: 53a3 e73d cf03 babc b135 7fbe f195 073e
000001f0: 7f00 a53e 2ba8 303e 4c35 6d3b 7963 663e
00000200: cd64 b33d a1e5 bf3d 8130 dc3d d746 213d
00000210: b538 0fbf 2405 cfbc 98cc 55be 379b dbbc
00000220: 8eca 14be b09c 1f3b 21c2 623d e014 3d3e
00000230: f880 a1be 060f 903d 7014 263e 6c9c 70bd
00000240: 6b64 223e 8781 953d 2532 ef3d 75f5 043e
00000250: f1ce 783e f97b 56bd d81d 023e 6612 18bd
00000260: f1d1 0abe 5e17 c43d 8c90 1a3e f647 2dbe
00000270: a8fb 4c3e 22c7 a7be b99a 923e ecbc 48be
00000280: 0de7 cf3d 659f 73be 5c75 053e 6e8f b63d
00000290: 2133 27be 7cd5 a1bd ac85 90be b5da 76bd
000002a0: 00b5 50be 8ad4 253e 7e19 62be 2cc2 2d3e
000002b0: 0d7a 223e 55e4 203e e43b 50be 8cb9 68be
000002c0: 417f 943e 1067 8dbe 3ac9 023c 159e 943d
000002d0: 28bf 4f3d d847 8ebe f670 873e a84d 1c3e
000002e0: b399 39be 4a14 153e 8156 81be 533b 07be
000002f0: 6eae 81bd 6220 bdbd 9dfb 8b3e d215 403e
00000300: e7b7 5fbe 1b8f 603c 4af2 693e 03fa 403e
00000310: 6aa4 66bd 6145 4a3e 6a89 b3bd 19ea 483e
00000320: 9d03 a83e 225d 60bb 0b9b 7a3e ca4f 9fbd
00000330: db5c 32be 56a9 77be 1e27 2e3e 9cd4 b1bd
00000340: 0edd 8ebe 4e5f 133e 2863 0dbe a77c 24be
00000350: 6e08 60be 5368 433e 65c8 95bd df89 153d
00000360: 51c8 883e 79cc ab3d 1c55 3abe 76c8 9dbe
00000370: 84a2 b13e 6cc6 60bc 50b1 debd 61f2 713e
00000380: d90a 803e ad3d 163d 637a 0a3d fd04 1c3e
00000390: 56a5 0cbe d7dd 193e 1ff3 453e bfc6 d2bd
000003a0: 93f0 3c3e d18c d4be 164c c1bc 7a8f 863c
000003b0: fbb4 17be 3040 c2bd 7cca 29bd 7ed1 403e
000003c0: 305f 4dbe dda9 d1bd 218d b2be f313 b33d
000003d0: d5a0 82bd 37b9 4fbb 7fc3 123e f8f4 79bd
000003e0: 1c5a da3c 0285 0b3e 0840 813e 0a8e e9bd
000003f0: a0c0 31be 5e19 bf3d 7b68 513e ed01 30be

fc2.bias f4 [3]
-0.0104951905 0.006243988 0.0031107783
00000000: 05f4 2bbc 5e9a cc3b 33de 4b3b
